models/Alternating.pth (torch, 661765 bytes, 8 tensors)

fc1.weight f4 [256, 67]
00000000: 8746 8642 6c35 4642 47ad 9842 b407 8642
00000010: 0207 5842 529e 8242 7326 7e42 8a72 8742
00000020: 7632 8842 9a10 8a42 926d 6342 1f2f 7c42
00000030: 39a5 7b42 0fca 3242 17e9 8542 66af 7042
00000040: fc50 6c42 2088 8842 625a 4b42 3da7 7142
00000050: c6ba 8442 310c 6642 10ac 8f42 d7ab 7642
00000060: d94c 8442 c736 8942 2120 6542 0a49 7f42
00000070: d10d 7942 ef33 7542 26fa 4042 5c75 9042
00000080: 55c0 2b42 1ef8 2442 3db7 9c42 a9f1 6542
00000090: bd4e 4742 4ffc 8142 9a76 8042 d22d 7642
000000a0: 3f0a 9842 30b5 5942 e64d 3542 2e08 7042
000000b0: 4769 3242 e10b 8842 c2f5 8142 7e9d 8942
000000c0: 1a11 8242 eca4 7042 0124 6542 2ced 7742
000000d0: 9ab5 4b42 9407 7b42 818e 3842 c0ff 8042
000000e0: 7ab7 8142 0b54 7f42 e9ac 6f42 ea10 8942
000000f0: 154c a142 099b a142 c2be 203e 145d 363e
00000100: 87b4 a442 64f4 313e a949 0e3e d28b 8e42
00000110: 971f 5b42 e12d a442 1cd5 8b42 8aaf 6f42
00000120: 176f 8c42 1361 8442 205c 8f42 5232 9242
00000130: 077f 9042 6a0c 6e42 9465 8342 58ae 8442
00000140: 5277 4442 f2f8 8e42 25d4 7342 c9ce 7f42
00000150: f6a5 8a42 8329 6142 d7be 8242 89c3 8c42
00000160: 6e70 7342 0e4c 9942 f9fc 8242 b5ab 8d42
00000170: 6eb2 9142 c246 7942 3ebb 8642 de8e 8642
00000180: a0e7 8542 55bf 5b42 a11b 9742 aedd 3342
00000190: 770f 2f42 710e ab42 1643 7542 c11a 5e42
000001a0: 5cfe 8742 a37a 8942 86b8 7e42 a677 a242
000001b0: e4d8 7242 2831 5142 4779 7a42 5522 4242
000001c0: 25b8 8e42 495e 8542 49a6 8e42 6e18 8842
000001d0: 65fa 7d42 96b7 7b42 8bc5 8142 68b4 7542
000001e0: 690e 7642 386b 5542 e53d 8942 6f0c 8742
000001f0: 6cf2 8342 4c31 8142 617d 8d42 3cac b442
00000200: 65d0 9e42 b0d6 66bc f845 54be 3d56 b742
00000210: 7a34 7b3e 49f6 b2bd 55e8 9142 4114 5942
00000220: 7c89 ae42 aaef 9242 5045 6d42 38c4 8b42
00000230: 8d9b 8342 4863 9342 cf91 9b42 c5e3 8d42
00000240: 8d7b 7242 1c3a 8942 5326 8542 a621 4342
00000250: 3ad9 8c42 794e 7b42 522b 8142 5794 8f42
00000260: e577 6242 a794 8342 7676 8e42 d09a 7642
00000270: 279d 9e42 3532 8342 5c69 9442 40a2 9342
00000280: 94d5 7742 0099 8842 632b 8442 a67e 8842
00000290: 5315 5b42 d3cd 9842 01cc 3542 767f 3742
000002a0: b16d ae42 1474 6e42 139f 5642 63ab 8442
000002b0: 2659 8942 11d7 8342 1b62 a742 1fb6 6b42
000002c0: 6bbc 5342 3fc2 7a42 7ef9 4642 c1ea 9142
000002d0: ca81 8842 8ebb 9142 8d8b 8a42 e896 7d42
000002e0: 2ff5 7942 165f 8242 7390 7442 1688 7742
000002f0: ebb4 5542 538a 8c42 1ee4 8942 d2c2 8742
00000300: 96bd 8242 4469 9042 85d9 c142 0832 a242
00000310: 351e 203e 4c80 debd 564f c442 2fa2 963c
00000320: ee72 8cbe 260d 8542 8ec3 5842 8402 a142
00000330: 6d8a 8642 a527 6242 71d4 7a42 83a1 7842
00000340: 1592 8942 d3c1 9042 9b4b 8742 8e8a 6442
00000350: d60c 8142 ce31 6842 ba90 3b42 3cec 8542
00000360: 0c00 6b42 27e5 6b42 42cc 7742 bdd2 5142
00000370: 8dc6 7242 e5ee 8442 43cf 5942 23f4 9242
00000380: e29b 7142 0464 8542 2420 8842 fb90 8042
00000390: 4898 8342 9ee6 7a42 52e5 6e42 8280 5042
000003a0: f069 8e42 ef16 2b42 b0dc 2642 42ed a142
000003b0: bcc0 6b42 965f 5e42 dc4e 7b42 1eb7 8242
000003c0: 2ac9 7942 b96c 9a42 d5ee 5f42 3b08 5442
000003d0: 9dea 6a42 3afd 6542 067a 8442 7761 8542
000003e0: 689c 8742 f034 8042 0106 7442 1d42 6f42
000003f0: 0499 7542 a681 6742 9ba0 6d42 021b 5342
67.13775 49.55217 76.33843 67.015045 54.006844 65.30922 63.537548 67.72371
68.09856 69.032425 56.857002 63.046017 62.91135 44.697323 66.95525 60.171288
59.079086 68.26587 50.838264 60.41332 66.36479 57.511906 71.83606 61.667812
66.15009 68.60699 57.281376 63.821327 62.263493 61.300716 48.244286 72.22922
42.937824 41.242302 78.35789 57.485996 49.826893 64.99279 64.23164 61.544746
76.02001 54.42694 45.326073 60.007988 44.60281 68.0232 64.979996 68.8076
65.0334 60.161057 57.28516 61.981613 50.927345 62.7574 46.139164 64.49951
64.85835 63.832073 59.918858 68.533035 80.6486 80.8028 0.15697768 0.17808944
82.35259 0.17378384 0.13895287 71.27309 54.78085 82.08961 69.91623 59.921425
70.21697 66.1896 71.67993 73.09828 72.2481 59.512123 65.698395 66.340515
49.116524 71.48622 60.957172 63.95194 69.32414 56.29054 65.372734 70.381905
60.859795 76.648544 65.49409 70.835365 72.848495 62.3191 67.36571 67.27904
66.95239 54.936848 75.55396 44.966484 43.765102 85.528206 61.315514 55.526127
67.996796 68.739525 63.6802 81.23369 60.711807 52.298004 62.618435 48.533527
71.35966 66.68415 71.324776 68.047714 63.494526 62.929283 64.885826 61.426178
61.514072 53.354706 68.62089 67.524284 65.97348 64.59628 70.74488 90.336395
79.40702 -0.014089271 -0.20729816 91.668434 0.24531737 -0.087383814 72.95377 54.26978
87.268524 73.468094 59.317688 69.88324 65.80381 73.69391 77.78478 70.94486
60.620655 68.613495 66.57485 48.78286 70.42427 62.826633 64.58461 71.78973
56.617085 65.79034 71.23137 61.651184 79.30694 65.59806 74.20578 73.816895
61.958572 68.29883 66.08474 68.24736 54.770824 76.402 45.449223 45.874474
87.21424 59.613358 53.655346 66.33474 68.67412 65.92005 83.69161 58.927853
52.934002 62.689693 49.743645 72.9585 68.253494 72.86632 69.27256 63.39737
62.489437 65.185715 61.141064 61.882896 53.426678 70.270164 68.94554 67.88051
65.370285 72.2056 96.92484 81.09772 0.15636523 -0.108643144 98.15495 0.018387882
-0.27431434 66.52568 54.19097 80.50491 67.27036 56.538715 62.707462 62.157726
68.78532 72.37856 67.64767 57.135307 64.52507 58.048637 46.891335 66.961395
58.750046 58.97378 61.94947 52.4558 60.693897 66.46659 54.452404 73.47683
60.40223 66.69534 68.062775 64.283165 65.797424 62.725212 59.723946 52.125496
71.20691 42.772396 41.715515 80.963394 58.938217 55.593346 62.82701 65.35765
62.44645 77.21235 55.983234 53.008038 58.729115 57.49729 66.23833 66.69036
67.80548 64.10339 61.005863 59.814564 61.39943 57.87661 59.40684 52.776375

fc1.bias f4 [256]
00000000: aee9 a442 352e b742 0990 c442 9f2d b642
00000010: 4632 c942 7f94 aa42 416d 1ac1 c181 ac42
00000020: 63a9 dc42 44bc b042 7b66 fcc0 015a b042
00000030: 466d 12c1 4e60 af42 d528 ad42 f1c4 c442
00000040: a88e b942 0531 53c1 2723 41c1 ff2b 10c1
00000050: 600e dc42 731c c842 c318 d942 2f2d c642
00000060: 8761 b042 f1bb b842 e483 23c1 56ac af42
00000070: f3d1 d742 40b9 aa42 79bb 11c1 0a23 2ec1
00000080: 68a9 c642 5949 ab42 1214 b042 5349 da42
00000090: 68cc d142 410d cf42 4fd7 1fc1 1423 52c1
000000a0: a9cf b242 e543 cc42 58a5 cb42 562f b942
000000b0: 0e92 38c1 97eb ab42 314d c442 f4f9 ad42
000000c0: 9a37 de42 8fd7 b642 fb0d aa42 2e01 ad42
000000d0: 2d76 1cc1 ef29 b042 316d e242 2846 b842
000000e0: cf19 ca42 a04b ce42 124e 07c1 0939 3bc1
000000f0: 3ec0 52c1 47c9 01c1 68cd dd42 236f c942
00000100: 26a7 ab42 0c29 b042 ea24 ce42 94d7 cf42
00000110: c042 50c1 5f59 b042 0e28 ab42 7f1d cd42
00000120: 9d4a b542 7d99 b642 6b62 b042 dcf6 d542
00000130: a1d5 ae42 e693 9842 23ea 0ec1 33e6 cd42
00000140: a761 cd42 5bff ad42 e4fb cc42 59fc ae42
00000150: 224b 0cc1 b91f b742 7a11 ce42 9ffd c842
00000160: 6cd7 b842 50c9 b642 e418 b042 fd7d c942
00000170: b36e 01c1 ce07 35c1 bcba b742 6880 41c1
00000180: 6e5f b742 ef23 d242 c2aa fcc0 c1ab b742
00000190: 8187 e442 8829 ab42 49da ac42 9b6d 0ac1
000001a0: 8b6d c742 907f ad42 7fb5 b042 113e 47c1
000001b0: a658 c442 84b6 c742 5863 4ec1 f32b b842
000001c0: be6b c742 a9a8 af42 a156 a942 cc92 16c1
000001d0: a525 da42 6aaa ca42 caa9 37c1 1555 b242
000001e0: b6e2 9b42 ab0b af42 1946 1ac1 6fcc b142
000001f0: 1a98 dc42 22da c742 e1ee 2dc1 0c2d af42
00000200: c478 d742 5c9d ad42 67cd ad42 1642 b642
00000210: 97e9 b242 ee6a 4dc1 dbc5 9b42 be2c cf42
00000220: 6045 bc42 8303 3bc1 22dd 1cc1 970a ad42
00000230: 5f81 c342 732c de42 ad4f 1fc1 5b1b b942
00000240: fc32 cc42 16fd b642 eefa ac42 e1c1 2ec1
00000250: 6f69 2dc1 003d b642 12cd b542 d24a ca42
00000260: 0613 2ec1 b94d c942 eed0 b642 dc7d 38c1
00000270: 0e27 4cc1 22ae ba42 ea9d b142 3f04 b042
00000280: c7b4 ab42 7077 d042 c3d3 ab42 6264 4ec1
00000290: 2341 b642 b20f b642 2f1c 3ec1 bf00 28c1
000002a0: 314d cf42 cede 34c1 f68c da42 d4fb b042
000002b0: dc4f 05c1 7376 d242 27b0 d942 5ee2 de42
000002c0: f8fe b442 99d4 da42 247e ae42 d98d b742
000002d0: f4ee b342 0291 b842 6d8d b642 31f2 08c1
000002e0: 8e45 0fc1 9df0 48c1 1e85 cb42 2d9f bb42
000002f0: 7d5b b942 b0a6 16c1 c4e0 ac42 3e43 19c1
00000300: b495 b842 8866 cd42 d8f1 04c1 0fba c542
00000310: 5940 b942 4b60 b342 edb7 ad42 9f62 a942
00000320: b612 b042 9aa9 cf42 0e2b ba42 f6b9 33c1
00000330: b01c b142 a1ea b242 247f ae42 ef20 4bc1
00000340: 3f04 b642 c136 de42 911e ac42 c22f 10c1
00000350: a760 21c1 cee4 b242 6a2e ac42 c7ac cb42
00000360: a85f 37c1 b2f1 bf42 a46b ae42 5b70 9642
00000370: 01a5 22c1 697a ad42 2db7 b542 9636 51c1
00000380: 5fb0 45c1 c302 b742 a184 b042 5908 b342
00000390: ec5d a242 c9d1 b342 1e69 ae42 32f8 9242
000003a0: d687 1ec1 eb22 3ac1 336d fcc0 a0a7 c842
000003b0: de3d e642 6890 c042 a0ff 04c1 6483 3dc1
000003c0: 69e7 05c1 e817 31c1 8813 b542 0697 45c1
000003d0: 4fd6 cc42 63ec db42 c27a cf42 5eea 4cc1
000003e0: f472 39c1 e77e d442 bc6b d442 cdcb 0bc1
000003f0: 2caa b242 2a22 c142 b581 d142 07fb b842
82.456406 91.59025 98.28132 91.0891 100.59819 85.29003 -9.651673 86.253426
110.33083 88.36771 -7.88751 88.17579 -9.151678 87.688095 86.57975 98.38465
92.778625 -13.199468 -12.071082 -9.010741 110.028076 100.055565 108.54836 99.08825
88.19048 92.36707 -10.2197 87.83659 107.91006 85.36182 -9.10827 -10.883554
99.33087 85.64326 88.0392 109.14321 104.89923 103.52589 -9.990066 -13.133564
89.40559 102.13261 101.82294 92.59245 -11.535658 85.96014 98.150764 86.98819
111.1086 91.42101 85.027306 86.502304 -9.7788515 88.0819 113.213264 92.137024
101.05041 103.147705 -8.45656 -11.701425 -13.171934 -8.11164 110.901184 100.717064
85.82646 88.08017 103.0721 103.92105 -13.016296 88.17455 85.57823 102.55761
90.64573 91.29978 88.19222 106.98215 87.417244 76.288864 -8.932162 102.94961
102.69073 86.99874 102.491974 87.49287 -8.768343 91.56196 103.034134 100.49535
92.420746 91.39319 88.048615 100.74607 -8.089526 -11.314405 91.864716 -12.093849
91.686386 105.07018 -7.8958445 91.83546 114.264656 85.581116 86.42634 -8.651759
99.71395 86.749146 88.354485 -12.452653 98.17314 99.856476 -12.899254 92.08584
99.710434 87.829414 84.6692 -9.410839 109.073524 101.33284 -11.478952 89.166176
77.942795 87.52279 -9.642114 88.899284 110.29707 99.92604 -10.87082 87.58798
107.73587 86.80734 86.90118 91.129074 89.45623 -12.838606 77.88644 103.58739
94.1355 -11.688357 -9.8039875 86.52068 97.75268 111.086815 -9.956952 92.55343
102.09958 91.49431 86.4901 -10.922334 -10.838241 91.11914 90.90053 101.14613
-10.879644 100.6518 91.408066 -11.530727 -12.759535 93.3401 88.808426 88.00829
85.85308 104.23328 85.9136 -12.8995075 91.12722 91.030655 -11.881881 -10.500182
103.650764 -11.304396 109.275314 88.49185 -8.331997 105.231346 108.84405 111.44212
90.497986 109.41523 87.24637 91.77705 89.966705 92.28322 91.27622 -8.559129
-8.954481 -12.5587435 101.759995 93.81089 92.67869 -9.415695 86.438995 -9.578917
92.29239 102.70026 -8.309044 98.863396 92.62568 89.68807 86.85923 84.69262
88.036545 103.83125 93.08409 -11.232901 88.55603 89.45826 87.24832 -12.69554
91.00829 111.10694 86.0597 -9.01166 -10.086097 89.446884 86.09065 101.837456
-11.460854 95.97206 87.210236 75.219444 -10.165284 86.73908 90.857765 -13.075827
-12.355559 91.505394 88.25904 89.516304 81.18344 89.90974 87.20531 73.48476
-9.908163 -11.633525 -7.88833 100.32739 115.120834 96.28204 -8.312408 -11.844578
-8.368997 -11.0683365 90.53815 -12.349371 102.41857 109.96169 103.73976 -12.807219
-11.590565 106.247856 106.21042 -8.737256 89.33237 96.56673 104.753334 92.49029

fc2.weight f4 [256, 256]
00000000: 9099 df42 8a6d b942 197b ba42 965f dd42
00000010: 7e51 bd42 f205 d742 5f70 08c2 93d2 e642
00000020: 9bfe a942 c3a2 e542 510b 15c2 3865 dd42
00000030: 64e4 0cc2 c446 d642 6278 df42 75c6 b942
00000040: 2cb7 de42 fb62 12c2 532e 38c1 e737 01c2
00000050: 8a45 a642 891d ba42 89d2 aa42 02c8 bc42
00000060: 963c ea42 ff3c d642 309b d2c1 e253 df42
00000070: 3553 aa42 aaaa db42 a5fd c7c1 85e7 c9c1
00000080: 184d c142 6161 db42 8942 dd42 39ef ab42
00000090: a6d7 af42 86cd b742 3720 e2c1 12bb 32c1
000000a0: f1fe db42 2b4c b342 1452 b342 957f e542
000000b0: 9b1e aec1 18fe ea42 a2bd bb42 1180 e142
000000c0: ffbe a442 165a d842 4692 e442 039e e542
000000d0: a0cf c3c1 a8b8 e642 2aaf a342 fee5 e042
000000e0: fa2e b442 d6e7 b642 cb57 10c2 b98b a1c1
000000f0: 2d8b d0c1 ed5b 0ac2 9dbd a842 a73e bb42
00000100: a191 e142 98f6 e142 5ca2 b942 35bb b742
00000110: 0834 03c1 a36c e542 26b9 e642 b48b b442
00000120: be12 e642 6dd8 df42 25b1 e242 79d1 ab42
00000130: 6d2d e442 a5f9 c942 a35c ddc1 23db b642
00000140: cfe3 b342 28f9 e742 065d b842 859f dc42
00000150: 199b fbc1 5a76 d842 f115 b842 1628 bb42
00000160: 8fe2 cd42 58e3 ce42 4ea0 e242 baa2 b442
00000170: 2ebc cec1 b51a 06c2 9cea e442 3080 42c1
00000180: 46cf ce42 9136 ba42 ab3d 09c2 5c0a db42
00000190: 0bf9 a242 0152 d742 7d30 e042 68fc 08c2
000001a0: f72e ba42 8807 df42 c0bb e342 9a3d 1ec1
000001b0: cd7a bc42 861a 9842 f12c 1ac2 aa20 ce42
000001c0: e78f b842 19b1 db42 e589 dc42 4765 adc1
000001d0: e727 a242 3ace b642 afc7 03c2 d9e9 e042
000001e0: f968 c942 d00e df42 e42e b7c1 b0f0 e042
000001f0: ae8f a842 f70f b142 d141 dec1 52d5 e242
00000200: 2f99 af42 771a e142 f103 e142 0776 d942
00000210: 5b3d e142 98b2 19c1 9c48 e242 8482 ae42
00000220: 349a cb42 ef0c 89c1 c6e8 d1c1 7ebe de42
00000230: 8eca c142 314e a442 64f4 ccc1 63a0 e242
00000240: 090c b642 50d1 e842 2db6 ef42 f9fb a1c1
00000250: 4fd8 e1c1 e053 df42 b631 e442 aad4 bb42
00000260: 2f26 b3c1 0237 b742 6cde e242 bd01 bac1
00000270: 0bdc 8ac1 61f5 d042 0d4d d642 11de df42
00000280: 3013 d942 0bef b742 2171 dd42 77d9 16c1
00000290: 8c59 db42 3e86 db42 e49c cac1 110a b6c1
000002a0: 54d6 9942 e743 5bc1 9f72 a942 ab5b df42
000002b0: 40d2 1dc2 f11c 9a42 9957 a242 00bd a342
000002c0: ba43 e642 26b3 af42 cf20 de42 2de5 e342
000002d0: a6d0 dc42 a04c ed42 3018 cd42 0c3f 08c2
000002e0: 114c f8c1 4051 4bc1 1835 b042 6702 c442
000002f0: e585 df42 efb6 9fc1 0072 e442 292b e3c1
00000300: 27b4 d242 9393 b242 252d 09c2 1944 b242
00000310: aef6 db42 763d dc42 49f5 cd42 92de e742
00000320: f94b db42 e7f3 b042 2f98 e142 9347 14c2
00000330: 20b7 e742 71aa e342 71d3 e042 ce00 b3c1
00000340: 728d d942 c60c 9d42 6417 d942 f5f0 eac1
00000350: f256 ebc1 cc63 d942 eccc ec42 c6a0 b742
00000360: 6af8 06c2 1578 cf42 43f4 df42 cc97 ce42
00000370: f122 e7c1 1717 d142 13cd ea42 b76d fcc0
00000380: 8aeb a8c1 3a47 d742 1964 d742 88bb d742
00000390: 75ac cf42 d110 d842 61ef d742 9d44 d042
000003a0: 0a2a bec1 d236 01c2 9ac8 e1c1 8d93 ba42
000003b0: 6da5 a242 3445 cc42 0eb6 fbc1 59fa bbc1
000003c0: 5211 fac1 44a9 a0c1 6029 d342 9154 10c2
000003d0: a6c7 b842 ab02 a742 9801 b142 3785 15c1
000003e0: 7a5d c6c1 bc0a ae42 a754 b742 3f34 ebc1
000003f0: 60bd d542 cd36 c942 4156 af42 a7c9 d042
111.79993 92.71394 93.240425 110.68669 94.659164 107.51161 -34.109737 115.41128
84.99728 114.817894 -37.26105 110.69769 -35.223038 107.138214 111.73512 92.88761
111.35776 -36.59666 -11.51131 -32.304592 83.13582 93.057686 85.4112 94.39064
117.11833 107.11913 -26.325775 111.66383 85.16251 109.83333 -24.99885 -25.238047
96.65057 109.69019 110.62995 85.96723 87.92119 91.90141 -28.26573 -11.170671
109.99793 89.648766 89.66031 114.74918 -21.764944 117.49628 93.87038 112.75013
82.37304 108.17595 114.28569 114.80862 -24.47638 115.36066 81.84212 112.4492
90.09175 91.452805 -36.085735 -20.193224 -26.067957 -34.58977 84.37034 93.62237
112.78443 112.98163 92.81711 91.86564 -8.200203 114.71218 115.36162 90.27286
115.036606 111.92271 113.345985 85.90913 114.08872 100.98759 -27.670233 91.428
89.94494 115.98663 92.18169 110.31156 -31.450731 108.231155 92.042854 93.57829
102.9425 103.44403 113.313095 90.317825 -25.841885 -33.52608 114.45822 -12.156296
103.40483 93.106575 -34.310223 109.52023 81.48641 107.660164 112.0947 -34.24649
93.09173 111.51471 113.8667 -9.890039 94.239845 76.0518 -38.543888 103.0638
92.28106 109.845894 110.269325 -21.674452 81.077934 91.40279 -32.945004 112.45673
100.705025 111.52893 -22.897896 112.47009 84.280624 88.53118 -27.782137 113.41664
87.79919 112.55169 112.5077 108.73052 112.619835 -9.606102 113.141815 87.25491
101.80118 -17.131315 -26.238659 111.372055 96.895615 82.15272 -25.619331 113.313255
91.023506 116.40881 119.85581 -20.248034 -28.23062 111.66382 114.09709 93.91536
-22.393644 91.60744 113.43442 -23.250849 -17.357443 104.479256 107.15049 111.93372
108.537476 91.96688 110.720955 -9.428092 109.6749 109.76219 -25.326607 -22.754915
76.91861 -13.704078 84.72387 111.67904 -39.455322 77.056526 81.17109 81.86914
115.13228 87.8499 111.06408 113.94761 110.40752 118.64966 102.54724 -34.06157
-31.037142 -12.707336 88.1037 98.00469 111.76151 -19.964323 114.22266 -28.396074
105.35186 89.28823 -34.294086 89.133 109.9818 110.12004 102.97907 115.93471
109.648384 88.47637 112.79723 -37.069897 115.857666 113.83289 112.41297 -22.375393
108.77626 78.52495 108.545685 -29.367655 -29.417454 108.694916 118.40024 91.81401
-33.74259 103.734535 111.97707 103.29648 -28.892061 104.5451 117.400536 -7.888393
-21.11501 107.639114 107.6955 107.86627 103.83683 108.032845 107.96754 104.13401
-23.770527 -32.303535 -28.22295 93.288185 81.3231 102.13516 -31.463894 -23.49724
-31.258457 -20.08265 105.58081 -36.082584 92.38994 83.50521 88.50311 -9.345023
-24.795643 87.020966 91.66534 -29.40051 106.86987 100.60703 87.668465 104.39385

fc2.bias f4 [256]
00000000: e177 bc42 86f6 b542 6bce bb42 d174 bd42
00000010: a02c 1941 f173 b242 9e25 a2be 3b00 1d41
00000020: e5b9 1e41 cf62 a9be 8fa3 8abe f25b bd42
00000030: 4274 65bc 01e5 1b41 2bae bc42 76a4 b642
00000040: 7f6a 2241 f105 1941 23d2 bc42 880e 1b41
00000050: a243 1f41 df5f 2141 f954 be42 cc03 be42
00000060: 704a be42 2a89 b6be a6fc b142 7a27 1e41
00000070: 1879 5ebe 73b4 1b41 075e bd42 8ed8 2741
00000080: ab0c bc42 5fa9 2041 13ff be42 14ad b442
00000090: 0da3 bb42 dfc8 bb42 dbbb bf42 c42e bd42
000000a0: f9b6 96be e4a3 be42 2f29 bb42 d492 1b41
000000b0: 2bf6 a1be b405 8ebe fc8d bf42 57e6 b8be
000000c0: e891 be42 a2c0 02be 140f ba42 71f7 1e41
000000d0: 2727 bd42 e5ae bc42 4ad6 1b41 eeca bb42
000000e0: b499 a8be 544e a6be 5155 bd42 6528 99be
000000f0: 5cfe b142 52cb b1be 46fb b642 54f3 b742
00000100: 5144 2041 e5f0 bc42 3abd 1c41 c220 b242
00000110: 27e6 1d41 63c2 bf42 9a85 be42 fda4 ba42
00000120: 5994 acbe c2d2 1e41 4ea2 1f41 5a7b bc42
00000130: 7971 bfbe d447 bb42 2e69 83be 1c24 1b41
00000140: 7553 2abe 11fd 1741 aebc bd42 9f51 ba42
00000150: da72 b142 e087 b842 f88f b542 17e9 bb42
00000160: f9a7 1d41 2351 b242 3921 a9be e89d b242
00000170: 7b7a 1f41 3230 bd42 a2c6 1e41 061f c042
00000180: bc39 bb42 e84a b342 f0a7 b842 27d9 2641
00000190: c9dd ba42 8c08 2141 5ea6 ba42 2668 1e41
000001a0: 5edf bb42 6f2d b542 f61f c342 94e1 bf42
000001b0: 5b2b c142 a274 bc42 135e 1c41 8be7 a4be
000001c0: 3360 bc42 ecc7 1c41 832a b742 ec81 b742
000001d0: 07fa 88be a999 bc42 b10c be42 215e 1c41
000001e0: 7172 2041 6526 a0be f1cb bc42 8ef9 ba42
000001f0: 3cf5 d042 9f4e 1e41 d40e c042 a6b7 b742
00000200: 1fee c142 68f4 a8be a5e1 bb42 7123 bd42
00000210: 71f0 cebe 2e43 2341 03bc 24be 9210 bd42
00000220: bb00 1c41 92f5 85be b69e bc42 1b8b b542
00000230: 1115 2241 0fe2 b8be 7921 b242 b6b8 1e41
00000240: 028d bf42 90ce b4be 2602 a9be 6cdc b142
00000250: c008 bd42 ed0a 2041 fd72 bb42 aade bc42
00000260: c60b bc42 df53 b142 f84c bc42 46a5 1b41
00000270: 6ecc b842 fb14 2241 b238 b742 ff76 b042
00000280: cc58 93be ab08 b5bc c9cf 82be d8f9 b3be
00000290: be33 b1be 6364 2141 1819 1e41 b27d b842
000002a0: 77b4 a1be cdc8 ba42 f9ae 1b41 4e1b 70be
000002b0: a611 1f41 5cb4 b342 d927 2741 8cdf a9be
000002c0: 5437 a4be 2439 1c41 5bed c742 5bb7 1a41
000002d0: e134 1abe f4a6 bd42 e38c be42 ddb6 1b41
000002e0: f556 b642 a24b 1441 55b1 b542 a201 b342
000002f0: 95df 2241 1a13 c342 4a9e bb42 7996 2241
00000300: cae7 ba42 19d0 2241 6e7e bc42 ac8a bb42
00000310: d73f bebe 58e5 b042 9738 1b41 a786 2141
00000320: faf0 bb42 ce85 b142 467f 92be efe0 1b41
00000330: f531 c042 79ae 1f41 d20d 1d41 9dc9 55be
00000340: d067 b642 baea 1a41 921d 1f41 99c0 b142
00000350: 10fb 2441 5106 bc42 dfbe 1b41 e38c 1b41
00000360: 9741 bd42 7ad2 bc42 299e 1b41 7500 bf42
00000370: dd74 bd42 309c bb42 c736 95be 2abb b142
00000380: c45b b642 6320 88be 475a 1e41 dce9 c9bc
00000390: cbe0 1941 f52b 1e41 f610 bc42 2f85 2241
000003a0: dc23 bc42 a8bd bc42 f531 c042 4182 b942
000003b0: 503c 1b41 e613 2041 49d5 b042 7e1e 1c41
000003c0: 8232 b542 7db8 a9be d80e bb42 cf04 1d41
000003d0: 4295 2441 3e5b b842 cc03 bb42 bd1d b342
000003e0: e980 b642 e9e1 2041 75e3 bd42 4241 bd42
000003f0: 772f 1e41 b755 b342 6b9b bc42 83f7 1f41
94.23414 90.98149 93.90316 94.72816 9.573395 89.22645 -0.31669325 9.812556
9.920384 -0.33083197 -0.2707791 94.67958 -0.014004769 9.743409 94.34017 91.32121
10.151 9.563951 94.41042 9.691048 9.954012 10.085906 95.16596 95.007416
95.145386 -0.35651523 88.993454 9.884638 -0.21725881 9.731555 94.68365 10.49037
94.02474 10.04135 95.49819 90.33804 93.81846 93.89233 95.866905 94.59134
-0.29436472 95.3201 93.58044 9.723347 -0.31633124 -0.27738726 95.77731 -0.36113235
95.28497 -0.12768796 93.02945 9.9354105 94.57647 94.34159 9.739817 93.89635
-0.32929766 -0.32481635 94.66663 -0.2991363 88.996796 -0.34725434 91.49077 91.97525
10.016679 94.4705 9.796198 89.06398 9.86869 95.87966 95.26094 93.32224
-0.3370693 9.926455 9.977125 94.24092 -0.3739126 93.64029 -0.25666183 9.696316
-0.16633399 9.499284 94.868515 93.15942 88.72432 92.26538 90.78119 93.95525
9.853509 89.15847 -0.3303316 89.30841 9.967402 94.59413 9.923494 96.06059
93.61276 89.6463 92.328 10.428016 93.433174 10.064587 93.324936 9.900427
93.936264 90.58874 97.56242 95.94058 96.58468 94.2278 9.772967 -0.32207903
94.18789 9.798809 91.58303 91.75375 -0.26753256 94.30012 95.02479 9.772981
10.02794 -0.31279293 94.39832 93.48741 104.47897 9.894195 96.02896 91.85869
96.96508 -0.32998967 93.94071 94.56922 -0.40417817 10.203901 -0.16087346 94.532364
9.750178 -0.26163918 94.30998 90.77169 10.130143 -0.3610997 89.06538 9.920095
95.775406 -0.35313845 -0.33009452 88.93051 94.51709 10.002667 93.72459 94.43489
94.022995 88.66381 94.15033 9.72785 92.39928 10.130122 91.61073 88.232414
-0.28778684 -0.02209886 -0.25549152 -0.35151553 -0.3460979 10.087008 9.881126 92.2455
-0.31582996 93.39219 9.730218 -0.23447916 9.941809 89.852264 10.447228 -0.33178365
-0.32073462 9.76395 99.963585 9.6697645 -0.15059234 94.82608 95.27517 9.732144
91.16984 9.268465 90.84635 89.50319 10.179585 97.53731 93.80916 10.1617365
93.45271 10.175805 94.24693 93.77084 -0.3715808 88.44794 9.701316 10.095374
93.97066 88.76134 -0.28612727 9.742415 96.09757 9.980096 9.815874 -0.2087769
91.20276 9.682306 9.944719 88.87617 10.311295 94.01234 9.734099 9.721896
94.628105 94.41109 9.726113 95.50089 94.72825 93.80505 -0.29143354 88.865555
91.17923 -0.2658721 9.89704 -0.024647646 9.617381 9.885732 94.03313 10.157516
94.07004 94.37042 96.09757 92.7544 9.702225 10.004858 88.41657 9.757444
90.59865 -0.33148566 93.52899 9.813674 10.28644 92.17821 93.507416 89.55808
91.25178 10.055154 94.94425 94.62746 9.886588 89.66741 94.30355 9.997928

fc3.weight f4 [256, 256]
00000000: c7a7 d242 4a92 e142 1081 d542 cf52 d142
00000010: ec5f c9c1 9d2f e342 5cb0 c93f 8ca8 0fc2
00000020: 0116 09c2 d958 b63f 8877 2f40 96f8 cf42
00000030: 59cc 9abc 12db e1c1 eaee d142 8dfa de42
00000040: e5e3 45c2 ad9e eac1 2305 d342 1f52 d7c1
00000050: da78 08c2 e683 02c2 d111 ac42 641e d042
00000060: 5d59 d242 236e 0640 d79b e342 20c8 19c2
00000070: 4e2c 8c3f 1eaa fcc1 fe12 d242 8659 24c2
00000080: 9afc d342 7c00 06c2 f2b8 ce42 020e e042
00000090: ac3a d842 4a4f d242 7e11 cc42 6f9b d242
000000a0: e035 e93f 24fc ce42 697b d542 706a 00c2
000000b0: a246 a23f 79fa c13f 1c6f cf42 92f5 0c40
000000c0: 77e9 cf42 6d93 1140 237c d842 696b 03c2
000000d0: cbb2 d142 05d3 d342 7226 12c2 63b3 d442
000000e0: 2737 583f 8009 8740 27fc ce42 52c1 d83f
000000f0: 1f8d e242 abfe 0040 2c7c de42 410c dc42
00000100: d5d5 4ec2 d3e4 d142 fcaa 48c2 8c02 e442
00000110: 9ccf d1c1 4ea4 cf42 6aeb d042 f4a5 d642
00000120: e84f 4340 324c fbc1 2d38 0ac2 ecdf d342
00000130: 44a0 ce3f 5af9 d542 c582 923f 8f68 f0c1
00000140: 39df 6240 5f57 bdc1 7d4d d142 fd96 d642
00000150: 9c28 e442 2479 da42 ec13 d942 d00b d542
00000160: d165 0fc2 a68d d142 809c ba3f b13b e342
00000170: 537e 4cc2 7272 ce42 632d e4c1 6455 cc42
00000180: 0692 d542 abd8 e242 eb34 d942 a190 14c2
00000190: 7a6b d742 5e64 44c2 eff6 d542 edd3 0bc2
000001a0: 0093 d442 f89c e042 db3d ca42 4c3f ce42
000001b0: 0fd1 c942 8eb3 d342 c934 eac1 1036 b23f
000001c0: 2751 d442 50ca 02c2 ec10 dc42 c982 db42
000001d0: ce86 b23f bd8c d342 38f2 cf42 5252 01c2
000001e0: f5a9 09c2 8762 1940 1534 d442 f803 d742
000001f0: de5e b942 f4ad fcc1 2e74 cd42 e1fc dd42
00000200: f004 cd42 4130 2640 5348 d442 81c3 d442
00000210: 4aec 0640 5a90 49c2 05c5 6c40 ed9a d242
00000220: 80a0 bdc1 a646 4240 45f5 d242 44ad e242
00000230: 9768 46c2 b128 0d40 e095 e442 66e6 1dc2
00000240: c6a9 ce42 988d 0b40 87b2 5940 4a19 e442
00000250: c1c7 d242 4d9c 0fc2 f9f1 d742 46ea d242
00000260: 0160 b942 90c9 ea42 574a d542 2103 e4c1
00000270: 1d72 d942 9b51 11c2 e49e de42 97e8 dc42
00000280: ef72 1740 a239 5e3d 7c64 bd3f 6b5c cb3f
00000290: 30ed ef3f 0ab9 4dc2 279b 0cc2 9fb5 da42
000002a0: 8f86 ef3f 348d d642 e402 d4c1 0c27 1a40
000002b0: 94b8 08c2 0c9b df42 1f0a 25c2 d921 0240
000002c0: c80f e93f 3d22 00c2 0cf0 c242 f175 03c2
000002d0: 0b4e cc3f d3df d042 348a d042 8bd2 fac1
000002e0: dbc3 df42 47b9 c2c1 4d48 e242 e9f9 e142
000002f0: ea4c 49c2 1ca5 ca42 f58e d342 c9f5 cbc1
00000300: 5ac8 d542 202a 42c2 1a9f d542 1ef7 d542
00000310: 72ab 2340 8b24 e642 8dc5 c5c1 0316 4ac2
00000320: c062 d442 bbba de42 9f00 f53f 8051 0cc2
00000330: 1b61 cc42 0551 1ec2 bbdf 10c2 f1ef d53f
00000340: b83e dc42 dd2f d3c1 54d0 f2c1 3dee e442
00000350: 2e7b 15c2 c728 d342 1b71 f5c1 1c04 d4c1
00000360: 86a3 cd42 6790 d342 0c29 c8c1 b8de ce42
00000370: 1655 d342 3db5 d242 3bd0 3a40 a75d e442
00000380: 8779 de42 3789 4a40 a2b3 02c2 88b9 a7bd
00000390: 1e23 0cc2 bb3c 04c2 c8d1 d742 f1a3 44c2
000003a0: d1d3 d342 7f4f d442 937c cf42 1db5 d842
000003b0: 1bd6 f2c1 ba06 11c2 957f de42 4d73 d7c1
000003c0: e355 e242 205f f23f 3666 d642 3bdd 26c2
000003d0: 631d 18c2 2c27 a242 3614 d642 8c80 e342
000003e0: 19e7 df42 5229 44c2 bfe5 d042 5240 d342
000003f0: 17fe f8c1 0958 ce42 4c99 d242 811a dbc1
105.32769 112.78572 106.752075 104.661736 -25.171837 113.592995 1.5756946 -35.914597
-34.27149 1.4245864 2.7416706 103.98552 -0.018896269 -28.231968 104.96663 111.48936
-49.472553 -29.327478 105.51003 -26.915098 -34.11802 -32.628807 86.0348 104.05936
105.17454 2.1004722 113.804375 -38.445435 1.0951021 -31.583065 105.037094 -41.087425
105.99336 -33.500473 103.36122 112.02736 108.11459 105.15486 102.034164 105.30358
1.8219566 103.49246 106.741035 -32.103943 1.2677805 1.5154563 103.71701 2.2024884
103.955986 2.2746232 108.242455 -32.854893 104.849205 105.91215 -36.537544 106.350365
0.84459156 4.2199097 103.492485 1.6933997 113.27563 2.0155437 111.24252 110.02393
-51.70882 104.94692 -50.166977 114.004974 -26.226372 103.82091 104.45979 107.32413
3.051752 -31.412205 -34.55486 105.93735 1.6142659 106.987015 1.1446158 -30.051054
3.5448744 -23.667662 104.651344 107.2949 114.079315 109.2366 108.53891 106.52307
-35.84943 104.77666 1.457901 113.616585 -51.123363 103.223526 -28.522161 102.16678
106.7852 113.42318 108.603355 -37.14124 107.709915 -49.098015 106.98229 -34.95696
106.28711 112.30658 101.12081 103.12363 100.90832 105.85069 -29.275774 1.3922749
106.1585 -32.69757 110.03305 109.75544 1.3947389 105.77488 103.97308 -32.33039
-34.415974 2.3966386 106.10172 107.50775 92.68529 -31.584938 102.72691 110.993904
102.50964 2.5966952 106.14126 106.38184 2.108172 -50.39097 3.699525 105.30259
-23.70337 3.035562 105.47904 113.33841 -49.60214 2.2056086 114.292725 -39.475
103.33159 2.1805172 3.4015214 114.04939 105.390144 -35.902637 107.9726 105.457565
92.68751 117.39368 106.645195 -28.501528 108.72288 -36.329693 111.31033 110.45428
2.36639 0.05425418 1.479629 1.5887579 1.8744259 -51.430702 -35.151516 109.35473
1.8712939 107.27579 -26.501411 2.4086332 -34.180252 111.802826 -41.259884 2.033316
1.8207941 -32.033436 97.46884 -32.865177 1.5961317 104.43716 104.26993 -31.352804
111.88253 -24.340467 113.14121 112.988106 -50.32511 101.32248 105.77921 -25.495012
106.89131 -48.541138 106.810745 106.98265 2.5573392 115.07137 -24.72146 -50.521496
106.19287 111.36471 1.9140815 -35.07959 102.18966 -39.57912 -36.218487 1.6713849
110.1225 -26.39837 -30.351723 114.46531 -37.370293 105.57964 -30.680227 -26.502007
102.81938 105.782036 -25.020042 103.435 105.66618 105.35398 2.9189594 114.182915
111.23736 3.164625 -32.675423 -0.08189684 -35.034294 -33.059307 107.90973 -49.1601
105.913704 106.155266 103.74331 108.35374 -30.354544 -36.25657 111.24918 -26.9313
113.16775 1.893528 107.19963 -41.716045 -38.028698 81.07651 107.039474 113.75107
111.95136 -49.04035 104.44872 105.625626 -31.124067 103.17194 105.29941 -27.387941

fc3.bias f4 [256]
00000000: 9f81 fa40 bb1e 0041 fb91 bc40 3c0a fe40
00000010: d90f e840 49c8 ec40 d531 e640 cccf e440
00000020: 2626 1041 b958 2f40 9dbb 2940 b6a7 ef3f
00000030: e49d 0c41 5b3a 4240 4b7f b540 1888 fd40
00000040: 91f8 0741 f11e 0041 1d6d 0a41 71f9 0341
00000050: 3f05 0341 0a2e 0541 f751 5040 bd14 f740
00000060: bdc8 0841 0289 0e40 a277 0741 0c64 fdbc
00000070: e5f6 a8bc d687 0141 b32b ac40 c6e6 d940
00000080: b035 c23d 19f9 ec40 7282 2c40 e0d6 56bd
00000090: 1df7 79bf 8431 0341 cd34 5440 510a 8540
000000a0: cb97 44bc db22 fb3f 41a0 0041 3019 5340
000000b0: af5d fb40 bed8 f840 0fb0 0741 eb63 dd40
000000c0: 70c0 0cbc 35a1 0d40 4ec6 f540 1602 0540
000000d0: aa95 6040 470b 99bc eae7 f440 673f 0441
000000e0: 0eb5 f640 be2a d740 b47f 5e40 7330 6340
000000f0: c75a 1841 f543 0a41 15bd f140 1152 cd40
00000100: 674c 0b40 99e8 6740 9d17 0441 00a9 0f41
00000110: 2baf 0941 9c3b 96bc f399 e240 2913 0741
00000120: 20b8 4b40 99f5 753f 1a0a b840 a237 5540
00000130: fe1b f740 308e f240 1110 0141 3083 513f
00000140: 5595 42bc ddf0 0141 e31b 9d3c 2fb2 8d40
00000150: 9161 c040 3fb1 6640 810f 5640 9933 95bc
00000160: 6d3c 9140 c001 1440 cb65 8a40 93a7 1940
00000170: 0219 5140 6b78 f640 e97c 1d40 b120 e640
00000180: 9cda fd40 e1d2 f640 2878 3a3d 7c25 0441
00000190: f1f3 0341 0016 0641 a565 0141 975f a7bf
000001a0: 5ba3 fb40 4b3d 1340 98ee c5be 6562 0741
000001b0: 168b 8240 c212 0141 4e50 d840 64fb 8740
000001c0: 695a 0241 eca5 2340 ecf1 a840 87b8 85bc
000001d0: 31c5 5440 5cf4 e5bc e33a 0741 4c51 1940
000001e0: ac53 fa40 5a8a d640 824a 3f40 a1f6 4a40
000001f0: d65c e840 34b6 f340 e542 2540 fbbf 05bc
00000200: 5b33 ff40 91f0 0a40 c389 f840 7086 0b41
00000210: 4eba f140 8217 3040 e201 a03f 3bc4 0d41
00000220: 0d50 4040 e5e0 e440 6486 0341 343a ec40
00000230: 19c2 0340 f5cb 1241 58e7 4b40 3528 8540
00000240: 8334 1441 b29a 0141 2ded 0141 12d9 f940
00000250: 6817 1b40 2398 333f 3348 0f41 506e 0541
00000260: a1b0 f940 7399 d640 1967 fe40 c14c 0840
00000270: c094 1240 41bb 5440 73e3 353e b768 0241
00000280: 102e e740 7f73 5140 e281 f140 718f da40
00000290: 1b02 5d40 824d 1741 11dc f340 58dc ee40
000002a0: 33ea ef40 9d3a 9d40 fddb f940 b4a6 ef40
000002b0: 7911 5e40 2ffe da3f 75c7 0041 c933 6340
000002c0: 19b1 6640 fe46 3e40 7e61 f940 aa59 ed40
000002d0: e93f 2940 7862 8740 27c4 0641 9053 de40
000002e0: 4160 0141 6417 0541 1a1c ea40 3732 4b40
000002f0: 6bf4 2e3f 4a4e fc40 55f8 0341 4c80 0141
00000300: 9e44 1441 f25e 0541 bfc3 0741 367f d340
00000310: 7795 0241 abae 3840 e6ea 5140 b764 0441
00000320: 8d4b 0241 7ebc f840 96b5 f440 f9c0 0441
00000330: 36aa dd40 dc91 d03e 60e4 b23f 5d53 eb40
00000340: 98c1 b440 449f 9b40 1437 8440 aa62 a23f
00000350: ccff 1640 dc32 cf40 fe18 e940 9068 9740
00000360: a3c5 4140 bb4f eebb 1f93 0241 374e 3840
00000370: 8c31 0741 355c f13f 5097 0041 c2cb 2040
00000380: 71dd 0341 0c1f f440 f217 5940 4724 0141
00000390: 684a fe40 fd55 e740 0663 85bc a198 ff40
000003a0: af76 8940 7327 dd40 4029 a740 13f9 77bc
000003b0: 0279 7940 dd1c 8d40 b9c3 c63f cbc8 2640
000003c0: ef1a 0241 8369 4440 2a8a a540 db63 8340
000003d0: dfbc df3f 3596 4040 8445 8940 e9ec e940
000003e0: 84fd 2b40 e17c cf40 9684 4840 5bcd fb40
000003f0: 1b46 3240 1102 0141 e985 e840 a958 ef40
7.828323 8.007503 5.89282 7.9387493 7.2519345 7.399449 7.193583 7.150366
9.009314 2.7397902 2.652076 1.8723056 8.7885475 3.0348117 5.6717887 7.922863
8.498185 8.007554 8.651639 8.248399 8.188781 8.32374 3.2550027 7.7212815
8.549008 2.2271123 8.466707 -0.030931495 -0.020625541 8.095663 5.3803344 6.8094206
0.09482896 7.4054074 2.6954618 -0.052451015 -0.9764269 8.199589 3.3157227 4.1575093
-0.011999081 1.9620012 8.0391245 3.2984123 7.855186 7.776458 8.480483 6.918447
-0.008590803 2.2129643 7.680457 2.0782523 3.5091348 -0.018682135 7.65331 8.265479
7.7096014 6.7239676 3.4765444 3.549832 9.522162 8.641591 7.5543313 6.416268
2.1765382 3.6235716 8.255765 8.97876 8.605266 -0.01833897 7.0812926 8.442178
3.183113 0.9607788 5.751233 3.3315206 7.722167 7.579857 8.066422 0.818408
-0.011876424 8.1213045 0.019178336 4.428001 6.01191 3.6045682 3.3446963 -0.01821308
4.538626 2.3126068 4.324926 2.400853 3.2671514 7.7021995 2.460749 7.1914907
7.9329357 7.713242 0.045524746 8.259151 8.247056 8.380371 8.087316 -1.3076047
7.863691 2.300616 -0.38658595 8.461522 4.0794783 8.06708 6.759803 4.2494373
8.147073 2.557002 5.2795315 -0.016323341 3.3245356 -0.028070621 8.451877 2.395587
7.822714 6.7043886 2.9889226 3.171303 7.2613325 7.6159916 2.582208 -0.0081634475
7.975019 2.170933 7.7668166 8.720322 7.5539923 2.7514348 1.2500575 8.860408
3.004886 7.152453 8.22031 7.382105 2.0587218 9.174794 3.185995 4.161158
9.26282 8.100267 8.120404 7.807748 2.4233036 0.7015402 8.955127 8.339432
7.802811 6.7062316 7.950085 2.1296847 2.290329 3.323929 0.17762546 8.150565
7.224373 3.2726743 7.547105 6.83001 3.4532535 9.456423 7.6206136 7.4643974
7.497339 4.913405 7.808104 7.4890995 3.4698164 1.7108821 8.048696 3.5500357
3.6045592 2.973083 7.793151 7.4171953 2.6445258 4.23077 8.422889 6.9477005
8.0859995 8.318211 7.3159304 3.1749399 0.683417 7.884557 8.248128 8.0938225
9.266752 8.33568 8.48529 6.6092787 8.16149 2.885661 3.279962 8.274589
8.143445 7.7730093 7.6471663 8.297112 6.9270277 0.40736282 1.3975945 7.353926
5.648632 4.8631916 4.1317234 1.268636 2.3593626 6.4749584 7.284301 4.731514
3.0276878 -0.007272688 8.160918 2.8797739 8.449596 1.8856264 8.036942 2.5124364
8.241563 7.62879 3.3920865 8.071357 7.946583 7.2292466 -0.01628257 7.9873815
4.2957377 6.9110656 5.2237854 -0.0151350675 3.8980107 4.4097733 1.552848 2.6060054
8.131576 3.06894 5.1731157 4.1059394 1.7479514 3.009168 4.289736 7.3101697
2.6873484 6.483994 3.1330924 7.868818 2.785529 8.0630045 7.2663465 7.479573

out.weight f4 [60, 256]
00000000: c75a 8c42 4c2f 8d42 2ead 8a42 1b97 8d42
00000010: b97d 8d42 0f19 9042 4640 8d42 6012 8d42
00000020: 2874 8e42 0953 3fc1 2594 36c1 7fc6 7ac1
00000030: 450d 8e42 6d3f 50c1 56bd 8b42 59be 8e42
00000040: 8b54 8e42 d028 8b42 0cfc 8c42 0b8b 8b42
00000050: 5dc1 8c42 3794 8e42 a9c9 64c1 917d 8942
00000060: a50c 8d42 2eeb 64c1 7eaf 8d42 6a1e 0bbc
00000070: 37ac bfbd fd14 8d42 f5c4 8d42 e4ae 8c42
00000080: e723 c13f c8f6 8c42 6d6e 4bc1 f6a2 183e
00000090: b3c1 52c1 1e1f 8e42 e4fc 39c1 91d2 23c1
000000a0: b7fd edbc d2b2 31c1 3427 8d42 bc01 26c1
000000b0: c207 8d42 495f 8d42 fa99 8f42 17c5 8c42
000000c0: b95e e4bd 2cca 46c1 bbc7 8e42 261a 66c1
000000d0: 5916 3fc1 fb4b d33c 6452 8b42 53f7 8e42
000000e0: de89 8e42 accb 8b42 ba1e 3fc1 1ddd 3ec1
000000f0: d7e6 8c42 7b77 8b42 06ee 8d42 7475 8d42
00000100: bc40 6fc1 61cb 64c1 cbf9 8d42 52e4 8c42
00000110: 24d4 8e42 1a0c ddbd 7101 8e42 a8ad 8c42
00000120: 7339 63c1 4f80 c6c0 002c 8b42 b6b8 4ac1
00000130: bbc5 8c42 1e06 8c42 c811 8d42 da61 f9c0
00000140: 4ea2 70bd 1730 8c42 0db5 0dc1 0608 03c1
00000150: 4fd6 8d42 6d20 5bc1 ae3f 46c1 0b0e babd
00000160: f6cf 1ec1 83af 7e42 be0a 30c1 35ea 3bc1
00000170: 91fe 2cc1 d56d 8e42 9fe7 16c1 ce71 8a42
00000180: bd0e 8d42 dd05 8d42 94df e4c0 e4ed 8d42
00000190: 4238 8a42 2854 8d42 0085 8d42 b8f3 22c1
000001a0: 274f 8c42 e487 59c1 657b d0c0 6ce5 8d42
000001b0: 5ce9 62c1 f1fa 8c42 9958 8b42 d3f8 8342
000001c0: 9072 8c42 bf45 5dc1 c2be 8d42 93a9 aebd
000001d0: 4ded 21c1 c362 f13d bbc2 8f42 6c79 39c1
000001e0: 4367 8e42 51a4 8f42 3d6f 18c1 ba0a 8342
000001f0: 072c 8e42 3e02 8d42 a971 27c1 0b67 bd3d
00000200: 1904 8e42 e858 2fc1 aa7d 8d42 f7ef 9042
00000210: e0b3 8b42 0e80 42c1 1856 79c1 9686 8d42
00000220: 8e3c 24c1 c386 8c42 d22f 8d42 6518 8d42
00000230: fb92 3dc1 e87c 8d42 818a 40c1 f2ac 38c1
00000240: fdb0 8b42 c80c 8d42 3fe5 8d42 5d67 8d42
00000250: 0e95 2cc1 cea5 dac0 07f5 8e42 7444 8f42
00000260: 6c14 8d42 2b38 8942 928a 8d42 a006 78c1
00000270: d545 1fc1 6ccf 1ec1 2cfd 0d40 a9f7 8d42
00000280: ec9f 8d42 11ed 3ac1 7cd1 8b42 d2b6 8c42
00000290: 5d09 38c1 86c6 8d42 c22f 8d42 6668 8d42
000002a0: b744 8c42 519a 20c1 01e1 8c42 a160 8f42
000002b0: 0819 38c1 e6b4 43c1 de4d 8d42 9c8e 55c1
000002c0: a2f8 8242 d501 3bc1 1d94 8e42 ea37 8d42
000002d0: f06d 66c1 f113 2bc1 d619 8e42 29ff 8c42
000002e0: f5e6 8b42 8ac7 8d42 5081 8d42 c3b4 06c1
000002f0: 30e5 3242 9885 8e42 e98b 8e42 1645 8d42
00000300: be7a 8d42 0c67 8c42 507d 8c42 2123 8a42
00000310: d13d 8d42 11ec 4cc1 12cc 2dc1 4f94 8c42
00000320: 4aad 8c42 0ab6 8e42 b3f1 8e42 e7bc 8d42
00000330: 800c 9342 4acc 2bc1 c1a7 60c1 67c1 8e42
00000340: ec21 8b42 06ac 3dc1 cc94 34c1 f30a 81c1
00000350: 916f 54c1 e2a6 8d42 6a41 8c42 9091 8d42
00000360: 3657 28c1 69c3 92bd 8771 8e42 2323 20c1
00000370: 3945 8d42 ecb6 86c1 1e67 8d42 23c5 49c1
00000380: a85b 8c42 62ad 8342 cf58 2cc1 981a 9042
00000390: e524 8c42 796d 8d42 0219 c13d cdf4 8c42
000003a0: 8e55 22c1 7e12 8c42 2b3c 8642 b8bd aebd
000003b0: 3555 2dc1 a263 1cc1 4d1c 7dc1 085c b7c0
000003c0: 0fee 8d42 bbd2 3dc1 780f 8a42 6861 1fc1
000003d0: 83f0 5fc1 03f8 3fc1 b636 29c1 019e 8e42
000003e0: 86b6 24c1 2406 8d42 ab69 29c1 4296 8d42
000003f0: 62d9 19c1 ead4 8c42 4cc0 8c42 2c00 8e42
70.1773 70.59238 69.33824 70.79513 70.74555 72.04894 70.625534 70.53589
71.22687 -11.957772 -11.411168 -15.673461 71.02592 -13.015485 69.8698 71.37177
71.16512 69.57971 70.49228 69.77157 70.37766 71.28948 -14.299233 68.74525
70.5247 -14.307417 70.84276 -0.008491138 -0.09359019 70.54099 70.88468 70.34158
1.5089082 70.481995 -12.714459 0.14905915 -13.17229 71.060776 -11.624241 -10.238908
-0.029051645 -11.106157 70.57657 -10.375423 70.51515 70.686104 71.800735 70.38494
-0.111508794 -12.424358 71.3901 -14.381384 -11.942956 0.025793066 69.66092 71.483055
71.26927 69.8978 -11.945002 -11.928983 70.45086 69.73336 70.96489 70.7294
-14.953304 -14.299653 70.98788 70.44594 71.41434 -0.10793324 71.002815 70.33917
-14.201526 -6.2031627 69.58594 -12.670095 70.38619 70.01195 70.53473 -7.793195
-0.058748536 70.093925 -8.856702 -8.189459 70.91857 -13.695416 -12.390547 -0.0908471
-9.925772 63.6714 -11.002623 -11.744679 -10.81215 71.214516 -9.431548 69.222275
70.528786 70.51145 -7.1522923 70.96463 69.10988 70.66437 70.759766 -10.184502
70.154594 -13.595676 -6.515063 70.94809 -14.1819725 70.49012 69.67304 65.985985
70.223755 -13.829528 70.872574 -0.085284375 -10.120435 0.117864154 71.88033 -11.592144
71.20168 71.82093 -9.527158 65.52095 71.08599 70.50438 -10.465249 0.092481695
71.008 -10.959206 70.74544 72.46868 69.85132 -12.156263 -15.583519 70.76286
-10.264784 70.26321 70.5934 70.547646 -11.848384 70.74396 -12.033814 -11.542223
69.84568 70.52496 70.94775 70.70188 -10.78639 -6.83274 71.47857 71.6337
70.53989 68.6097 70.770645 -15.501617 -9.954549 -9.92564 2.2185774 70.98371
70.81235 -11.682878 69.90915 70.35707 -11.502286 70.88774 70.59328 70.7039
70.13421 -10.037675 70.43946 71.68873 -11.506111 -12.231665 70.652084 -13.347317
65.48561 -11.687947 71.28928 70.60921 -14.40184 -10.6923685 71.05046 70.49836
69.95109 70.889725 70.75256 -8.419131 44.723816 71.260925 71.27326 70.63493
70.73973 70.20126 70.24475 69.06861 70.620735 -12.807633 -10.862322 70.289665
70.338455 71.355545 71.47207 70.86895 73.524414 -10.737375 -14.040956 71.37774
69.56625 -11.854498 -11.286327 -16.130346 -13.277238 70.82594 70.12776 70.7843
-10.521292 -0.07166178 71.22173 -10.008578 70.6352 -16.839317 70.7014 -12.610629
70.179016 65.83864 -10.771682 72.05194 70.07206 70.71381 0.09428598 70.47813
-10.145887 70.03612 67.117516 -0.0853228 -10.8333025 -9.774324 -15.819409 -5.7299843
70.96496 -11.863948 69.03021 -9.961281 -13.996219 -11.99805 -10.575857 71.3086
-10.294561 70.51199 -10.588298 70.79347 -9.615572 70.41585 70.37558 71.000336

out.bias f4 [60]
00000000: 799f 2e3f 7f04 2a3e 12bc 583f f181 1640
00000010: 485c 56be 57fc 463e 0cb6 2ebe 75c9 883f
00000020: 6e57 eb3f 99c2 4a3f ec39 923e e4b4 d9bc
00000030: dfaa 173f df28 963e 11e3 313f 1eed 463e
00000040: 6e3d a7be 0239 533d 4557 003f 00e8 d83e
00000050: a57b f93e fc48 13bf 547d 823f 098a 163f
00000060: 461a 0840 7042 9e3f 0b2a 01bf 2615 c9bd
00000070: 1865 32be 19ae 153f 5464 b63e 444c b8be
00000080: 8338 153f d7ef b53e 199a eb3f 24dc f53e
00000090: 6173 fbbd 5742 ac3e 8b6b 683c 9797 ad3f
000000a0: c1d2 cf3f 6ec2 9fbe 9c7b f9be 0b41 3b3e
000000b0: a634 5abe 3cf7 213f f546 31be 1fef 613f
000000c0: 2c7a d4bd 0ca9 80be 9896 05be d2ee b63e
000000d0: f77a 113f 492d fe3e 3f03 8d3d 9a7d 88be
000000e0: 71b5 f83e d7ab 163f 0ef4 78bd e6b9 053f
0.68212086 0.16603278 0.8466197 2.351681 -0.2093364 0.19432198 -0.17061633 1.068648
1.8386056 0.7920318 0.28559816 -0.026575513 0.59245104 0.29328057 0.694871 0.1942639
-0.32664055 0.05156804 0.5013316 0.42364502 0.48727146 -0.5753324 1.0194497 0.58804375
2.1266036 1.2364025 -0.5045478 -0.09818487 -0.17421377 0.58468777 0.3562342 -0.35995686
0.58289355 0.35534546 1.8406402 0.48019516 -0.12277866 0.33644363 0.0141857965 1.3561887
1.6236192 -0.31203026 -0.4872712 0.1828653 -0.21309146 0.63267875 -0.17312224 0.88255495
-0.10374865 -0.25128973 -0.13045728 0.3572908 0.56828254 0.49643925 0.06885385 -0.26658326
0.4857593 0.58855957 -0.060779624 0.52236784
