models/Curriculum.pth (torch, 661751 bytes, 8 tensors)

fc1.weight f4 [256, 67]
000000 cf 50 da 40 52 85 fa 40 34 04 9c 40 4b 0e 1f 41
       6.8223643 7.8287745 4.875513 9.9409895
000010 56 a5 09 c0 db 22 3b c0 87 fc eb 40 50 18 94 c0
       -2.1507163 -2.9240024 7.374576 -4.627968
000020 52 52 7a c0 12 9d 95 c0 e5 49 67 c0 3c d9 fd c0
       -3.9112744 -4.6754236 -3.6138852 -7.932768
000030 b8 d7 7a c0 7e 39 92 c0 af 30 98 c0 44 14 94 40
       -3.9194164 -4.569518 -4.755943 4.627474
000040 6b ab 94 c0 6a fd f1 3f 34 ce c8 40 d8 8d bc 40
       -4.645925 1.8905461 6.2751713 5.892315
000050 44 7a 67 40 f3 7e 93 3e 5a 62 ec bd 00 cc 2d c0
       3.6168375 0.28807792 -0.115421966 -2.7155762
000060 93 e3 c7 c0 9d 8b e3 40 ae 32 62 c0 6b 83 b9 40
       -6.24653 7.1107926 -3.5343432 5.797292
000070 34 f3 f8 40 29 33 29 c0 a7 da d9 40 10 9b ae c0
       7.779688 -2.6437476 6.807941 -5.4564285
000080 ff e7 f0 40 10 5c 85 40 7a 60 22 c0 ab a4 19 bf
       7.52832 4.167488 -2.5371385 -0.6001689
000090 3e 62 80 c0 4e 9e 0a c0 b7 73 b4 c0 4f 47 53 3f
       -4.0119925 -2.1659122 -5.6391253 0.82530683
0000a0 b4 25 c3 bf b1 d2 13 3f ac 13 69 c0 b6 f0 6c c0
       -1.5245881 0.57743365 -3.6418257 -3.7021918
0000b0 2d 26 ea 40 d7 b0 ee 3f 54 81 92 40 78 25 6b 41
       7.31716 1.8647717 4.578287 14.696648
0000c0 e0 26 a6 40 95 3d 53 c0 6f e3 b6 3f a1 3f 80 c0
       5.1922455 -3.3006337 1.4288157 -4.007767
0000d0 a1 6f cd bf a6 6d bb c0 92 8b e2 40 99 b6 c2 3f
       -1.6049691 -5.857135 7.0795374 1.5211974
0000e0 51 58 c2 3f 64 25 f2 40 aa 20 c3 c0 be 29 f7 40
       1.5183202 7.5670643 -6.0977373 7.7238455
0000f0 c2 72 21 c1 38 c3 2e 3e 09 b0 fe bd a0 1a bd 3d
       -10.090517 0.17066658 -0.1243592 0.09233594
000100 9a e8 26 c1 4a 2d 54 3e d2 54 20 3e 76 0d 2e 43
       -10.4317875 0.20720401 0.15657356 174.05258
000110 47 05 2c 43 e0 d1 2d 43 38 95 26 43 2a ea 2c 43
       172.02061 173.81982 166.58289 172.9147
000120 09 c7 2f 43 4e 0a 2b 43 00 b7 2e 43 36 a3 30 43
       175.77748 171.04025 174.71484 176.63754
000130 40 49 31 43 dc 66 30 43 9a 52 3d 43 7d 83 2d 43
       177.28613 176.4018 189.32266 173.51363
000140 16 58 35 43 a2 49 34 43 5a 44 2d 43 ac 65 32 43
       181.34409 180.28763 173.267 178.39716
000150 69 7c 2d 43 18 96 2b 43 7f 56 2b 43 95 be 2d 43
       173.48598 171.5863 171.33788 173.74446
000160 14 14 2d 43 00 e9 2d 43 fc 32 2e 43 6f 83 38 43
       173.07843 173.91016 174.19916 184.51341
000170 27 25 2b 43 98 fe 2f 43 10 07 2f 43 3d 1a 29 43
       171.14513 175.9945 175.02759 169.1025
000180 6b b7 2e 43 7c cd 2a 43 30 18 30 43 c0 ed 29 43
       174.71648 170.80267 176.09448 169.92871
000190 e4 4a 2d 43 14 92 2e 43 d0 00 2e 43 22 62 30 43
       173.29254 174.57062 174.00317 176.38333
0001a0 f8 76 2d 43 d6 b9 36 43 89 35 2e 43 12 99 2f 43
       173.46472 182.72592 174.20912 175.59793
0001b0 6d 94 2c 43 9f 8b 2f 43 d6 44 30 43 3b 50 2c 43
       172.57979 175.5454 176.26889 172.3134
0001c0 c4 e7 2c 43 5f 02 2d 43 45 29 2a 43 f6 3d 2d 43
       172.90533 173.00926 170.16121 173.24203
0001d0 b3 31 2f 43 f9 58 2e 43 8b c6 30 43 92 85 2e 43
       175.19414 174.34755 176.77556 174.52176
0001e0 2d 6b 37 43 9f fd 2d 43 ee fd 2d 43 cc 9a 2d 43
       183.41866 173.9907 173.99191 173.60468
0001f0 48 f2 2a 43 da ce 33 43 85 93 28 43 1f 9f 41 43
       170.94641 179.80801 168.57625 193.62157
000200 92 f3 2d 43 70 47 93 3e ca 5e 28 3e a7 e7 42 43
       173.95145 0.2876544 0.16442409 194.90489
000210 ee dd 47 3d db f6 f8 3d 07 ff 2e 43 c9 a8 2f 43
       0.048795633 0.12156459 174.9962 175.65932
000220 f8 a9 2f 43 8e b2 27 43 71 4b 31 43 ae 21 32 43
       175.66394 167.69748 177.2947 178.13156
000230 09 18 2e 43 83 d5 33 43 05 7c 33 43 ce a2 35 43
       174.09389 179.83403 179.48445 181.63596
000240 3e a0 33 43 32 23 41 43 15 4d 32 43 f4 88 37 43
       179.62595 193.13748 178.3011 183.53497
000250 5f 37 38 43 db 23 30 43 6d 2b 36 43 46 5e 30 43
       184.2163 176.14006 182.16963 176.36826
000260 8e 63 2f 43 a6 43 2e 43 48 0d 30 43 28 38 30 43
       175.38889 174.26425 176.05188 176.21936
000270 38 44 30 43 b0 50 32 43 b7 f0 3a 43 77 c1 2d 43
       176.26648 178.31519 186.94029 173.75572
000280 43 4d 33 43 73 10 30 43 20 de 2d 43 c7 fb 31 43
       179.3018 176.06425 173.86768 177.9835
000290 a0 62 2e 43 85 bc 33 43 98 89 2c 43 05 5c 30 43
       174.38525 179.7364 172.53748 176.35945
0002a0 2a a7 32 43 30 ef 30 43 f2 3e 36 43 b4 98 31 43
       178.65298 176.93433 182.24588 177.5965
0002b0 e3 c0 39 43 18 ac 31 43 8b 8d 31 43 d7 68 30 43
       185.75346 177.67224 177.5529 176.40953
0002c0 fe 90 33 43 0f 03 35 43 53 1e 2e 43 ab 61 2f 43
       179.56638 181.01195 174.11845 175.38152
0002d0 e8 10 2f 43 cb ae 2b 43 c7 0a 30 43 b6 50 33 43
       175.06604 171.68279 176.0421 179.31528
0002e0 47 d1 30 43 ab 7c 34 43 e0 86 30 43 2f a2 3b 43
       176.81749 180.48698 176.52686 187.63353
0002f0 63 7a 2e 43 b1 23 31 43 d0 d4 2f 43 6e 11 2f 43
       174.47807 177.13942 175.8313 175.06808
000300 50 c1 36 43 68 ed 2a 43 47 91 45 43 3c 74 2e 43
       182.75513 170.92737 197.56749 174.45404
000310 c7 b2 1d 3e c9 63 db bd 3b e2 46 43 c9 0f 9e 3d
       0.1540023 -0.10712392 198.88371 0.077178545
000320 e2 2b 5a bd b6 7e d7 40 79 00 f9 40 4e 5b 91 40
       -0.053264506 6.7342176 7.7813077 4.5423956
000330 8e 1f 1c 41 9d 82 50 bf 5f d8 27 c0 cb 04 e9 40
       9.757704 -0.814493 -2.6225812 7.281835
000340 20 c0 75 c0 b5 9d 6d c0 4d 87 82 c0 94 98 1d c0
       -3.8398514 -3.7127507 -4.079016 -2.4624376
000350 92 96 0c c1 74 4a 2c c0 9e e5 a2 c0 a4 83 b9 c0
       -8.78676 -2.6920443 -5.0905294 -5.7973194
000360 bd 5c 96 40 58 3e 84 c0 8a ff 0e 40 ab cf c9 40
       4.6988206 -4.1326103 2.2343469 6.3066
000370 c4 a9 bc 40 3f 8d 4f 40 b1 56 d7 3e ab 60 6d bf
       5.8957233 3.242996 0.42058328 -0.9272563
000380 6b 08 06 c0 c4 7f ef c0 f2 e1 de 40 ee 2f 11 c0
       -2.0942638 -7.4843464 6.965081 -2.2685504
000390 41 b8 c0 40 6b 5d f7 40 6e 99 25 c0 c2 4c d7 40
       6.022492 7.7301536 -2.5874896 6.72812
0003a0 01 24 80 c0 24 93 ee 40 99 0f 72 40 b0 cf 16 c0
       -4.004395 7.4554615 3.782202 -2.3564262
0003b0 1a 4c 19 3c a6 4b 22 c0 ea 2a ee bf e6 43 d0 c0
       0.009356523 -2.5358672 -1.8606846 -6.5082884
0003c0 d2 b8 a5 3f 05 c1 07 c0 33 28 56 3f e5 1c 82 c0
       1.2947028 -2.121156 0.8365509 -4.066027
0003d0 42 81 54 c0 e6 76 e7 40 28 83 f8 3f 2c 60 92 40
       -3.3203893 7.233264 1.9415026 4.5742397
0003e0 6e 87 68 41 4f 00 9d 40 bb d9 14 c0 e5 d7 ac 3f
       14.533064 4.9062877 -2.3257892 1.3503386
0003f0 fa 24 08 c0 f2 04 b1 bf e4 1c b3 c0 83 12 df 40
       -2.1272569 -1.3829634 -5.5972767 6.9710097

fc1.bias f4 [256]
000000 3d 82 25 c1 66 d2 42 43 04 d0 46 43 d9 93 43 c1
       -10.344296 194.82187 198.81256 -12.223596
000010 aa 97 44 43 e7 33 43 43 5e b8 46 43 14 ee 43 43
       196.59244 195.20274 198.72018 195.93
000020 c5 b1 47 43 ab 92 46 43 0a 6c 24 c1 a0 c9 36 c1
       199.69441 198.57292 -10.276377 -11.424225
000030 16 ac 43 43 cc 27 45 43 03 66 45 43 63 a6 44 43
       195.67221 197.15546 197.39848 196.64995
000040 77 52 46 43 30 21 45 43 fe aa 24 c1 06 5a 45 43
       198.32213 197.12964 -10.291746 197.35165
000050 09 bd 44 43 74 71 44 43 0e c8 43 43 94 a1 e4 bf
       196.73842 196.44318 195.78146 -1.786181
000060 14 c0 46 43 4e b7 44 43 1d 67 2c c1 e8 3e 45 43
       198.7503 196.71603 -10.775174 197.24573
000070 e1 41 44 43 96 83 26 c1 8c 0b 46 43 1f 76 42 43
       196.25734 -10.407125 198.0451 194.46141
000080 58 f4 42 43 36 ca 43 43 49 ac 46 43 f1 3d 44 43
       194.95447 195.78989 198.67299 196.24196
000090 08 b2 43 43 de 98 44 43 c8 aa 46 43 48 7e 43 43
       195.69543 196.59714 198.66711 195.49329
0000a0 84 c3 42 43 7a c8 46 43 76 20 41 43 57 29 45 43
       194.76373 198.78311 193.1268 197.16148
0000b0 37 8f 44 43 1f 46 43 43 54 a6 46 43 66 f0 2d c1
       196.55943 195.27391 198.64972 -10.871191
0000c0 02 98 46 43 16 f0 44 43 81 b6 43 43 41 e7 41 43
       198.59378 196.93784 195.7129 193.90334
0000d0 0d e0 43 43 a3 85 42 43 6a e0 46 43 73 3a 21 c1
       195.8752 194.52202 198.87662 -10.07677
0000e0 eb 6f 44 43 32 d2 21 c1 8b 8a 43 43 16 a2 46 43
       196.43718 -10.113817 195.54118 198.63315
0000f0 a7 54 43 43 fb 1c 47 43 ae c2 46 43 be 8d 45 43
       195.33067 199.1132 198.76047 197.55368
000100 a1 e2 45 43 40 65 43 43 ef 72 44 43 91 dd 44 43
       197.88527 195.39551 196.44896 196.8655
000110 10 f0 45 43 c0 2f 46 43 ff ca 46 43 f9 8d 42 43
       197.93774 198.18652 198.79295 194.55458
000120 72 6f 26 c1 4c 89 46 43 be 19 43 43 40 1f 46 43
       -10.402208 198.53632 195.10056 198.12207
000130 fb dc 2a c1 61 23 47 43 84 1d 26 c1 ee c0 43 43
       -10.67895 199.1382 -10.382206 195.75363
000140 59 68 45 43 19 67 40 43 de 8d 46 43 20 e8 44 43
       197.40761 192.40273 198.55417 196.90674
000150 4e 86 46 43 68 af 41 43 c3 ac 46 43 76 68 46 43
       198.52463 193.68518 198.67485 198.40805
000160 69 96 42 43 02 a8 46 43 01 8a 44 43 9f 52 46 43
       194.58754 198.65628 196.53908 198.32274
000170 3e 68 45 43 b5 fd 33 c1 03 ea 42 43 c3 d6 46 43
       197.4072 -11.24944 194.91411 198.83891
000180 c7 6e 43 43 a2 30 47 43 66 a5 42 43 57 2b 23 c1
       195.43272 199.18997 194.64609 -10.198081
000190 00 ee 44 43 2b 11 44 43 ee 39 46 43 31 62 46 43
       196.92969 196.06706 198.22629 198.38356
0001a0 bc 99 06 c0 32 7d 46 43 bb e8 44 43 94 bf 46 43
       -2.1031332 198.48904 196.9091 198.74835
0001b0 1c ec 46 43 11 4c 44 43 6e 98 46 43 52 82 45 43
       198.9223 196.29713 198.59543 197.50906
0001c0 99 bc 24 c1 01 a0 42 43 c7 98 42 43 b0 18 20 c1
       -10.296044 194.62502 194.59679 -10.006027
0001d0 e6 09 47 43 13 ca 46 43 c3 99 46 43 76 a4 46 43
       199.03867 198.78935 198.60063 198.64243
0001e0 6d 9e 46 43 a4 28 43 43 35 23 45 43 b1 1d 48 43
       198.61885 195.15875 197.13753 200.11598
0001f0 b2 37 41 43 1b a0 45 43 b1 85 2a 43 56 e2 25 c1
       193.21756 197.62541 170.52223 -10.367758
000200 25 0e 45 43 79 82 43 43 2a 97 45 43 7e 0c 47 43
       197.05525 195.50966 197.59048 199.0488
000210 78 5f 44 43 cb 80 41 43 95 5a 41 43 0e ba 46 43
       196.37292 193.5031 193.35384 198.72678
000220 a1 ae 46 43 d7 77 46 43 7c 9e 45 43 9f b6 46 43
       198.68214 198.46812 197.61908 198.71336
000230 45 e2 da bf 2e 7b 46 43 ba 6f 43 43 3b 0c 47 43
       -1.7100302 198.48117 195.43643 199.04778
000240 3e 53 46 43 2c 93 46 43 ba ff 44 43 9d ae 46 43
       198.32516 198.57489 196.99893 198.68208
000250 86 12 42 43 fc a8 46 43 69 a0 46 43 ad da 24 c1
       194.07236 198.6601 198.6266 -10.303388
000260 a3 83 46 43 38 71 43 43 d6 3d 43 43 1e 76 46 43
       198.5142 195.44226 195.24155 198.4614
000270 59 6c 41 43 b1 4e 43 43 5a 6d 41 43 61 1c 44 43
       193.42323 195.30739 193.42715 196.11086
000280 b5 93 43 43 37 90 43 43 8c 6a f3 bf 60 f8 43 43
       195.57698 195.56334 -1.901689 195.97021
000290 36 9a 46 43 77 a2 46 43 8f d9 3c 43 a2 78 46 43
       198.60239 198.63463 188.84984 198.47122
0002a0 4b f8 47 43 57 97 43 43 bd 54 44 43 d6 de 46 43
       199.9699 195.59117 196.33101 198.87045
0002b0 03 23 47 43 a4 f2 44 43 01 c4 44 43 75 97 46 43
       199.13676 196.94781 196.76564 198.59163
0002c0 98 09 46 43 84 6d 40 43 2a 22 24 c1 98 8e 46 43
       198.03748 192.4278 -10.258341 198.557
0002d0 fe ae 25 c1 0f 94 43 43 eb cf 43 43 00 d5 46 43
       -10.355223 195.57835 195.81218 198.83203
0002e0 f8 e9 2e c1 3d 4b 40 43 9a aa 46 43 99 e3 27 c1
       -10.932121 192.2939 198.66641 -10.493066
0002f0 e1 c1 45 43 41 97 41 43 7a 13 46 43 ad ab 46 43
       197.75734 193.59084 198.07608 198.67061
000300 19 eb 43 43 ff a6 46 43 1d 64 46 43 08 f2 42 43
       195.91835 198.65233 198.39107 194.94543
000310 c9 f4 43 43 ed 3b 43 43 8b db 22 c1 6c a5 41 43
       195.95619 195.23409 -10.178599 193.64618
000320 22 7f 43 43 ba 3e 44 43 08 09 45 43 d4 06 46 43
       195.49661 196.24503 197.03528 198.02667
000330 68 44 46 43 1b 35 44 43 f4 43 44 43 46 ee 47 43
       198.26721 196.20744 196.26544 199.93076
000340 af b4 43 43 19 90 41 43 38 6b 40 43 d4 40 23 c1
       195.7058 193.56288 192.41882 -10.203327
000350 5e e5 43 43 62 c7 46 43 63 35 44 43 ee d1 46 43
       195.89597 198.77884 196.20854 198.82004
000360 f8 b5 46 43 68 72 45 43 6f 4a 46 43 a3 2b 46 43
       198.71082 197.4469 198.29076 198.17046
000370 20 7e 45 43 ba 52 47 43 4a 01 47 43 9c f4 42 43
       197.49268 199.32315 199.00504 194.9555
000380 b9 32 42 43 c1 81 46 43 83 83 44 43 24 d5 43 43
       194.19814 198.50685 196.51372 195.83258
000390 ca 7a 45 43 b3 51 46 43 28 e5 43 43 c8 d3 45 43
       197.47964 198.31914 195.89514 197.82727
0003a0 f3 71 46 43 4f 66 41 43 01 a3 46 43 d8 b2 43 43
       198.44511 193.39964 198.63673 195.69861
0003b0 b8 6c 29 c1 70 c9 43 43 df cc 46 43 68 b8 43 43
       -10.589043 195.78687 198.80028 195.72034
0003c0 4b db 24 c1 71 b5 46 43 58 01 44 43 59 c8 42 43
       -10.303538 198.70876 196.00525 194.78261
0003d0 6c 98 46 43 c3 53 44 43 f3 08 43 43 cc e7 45 43
       198.5954 196.3272 195.03496 197.90546
0003e0 a7 2d 44 43 94 27 44 43 30 87 46 43 e1 ea 43 43
       196.17833 196.1546 198.52808 195.9175
0003f0 df 09 44 43 f6 e8 43 43 ec 86 39 c1 f4 ff 46 43
       196.03856 195.91 -11.59544 198.99982

fc2.weight f4 [256, 256]
000000 2f 5f 94 c2 f8 fb 4b 43 2f 54 3f 43 96 4c 8c c2
       -74.185905 203.98425 191.32884 -70.14958
000010 16 db 48 43 33 e7 48 43 26 82 3f 43 26 12 4a 43
       200.8558 200.90312 191.50839 202.07089
000020 ab d9 3b 43 9b 3f 40 43 4c e8 98 c2 e2 28 91 c2
       187.85027 192.24846 -76.453705 -72.57985
000030 43 4a 49 43 d9 41 3d 43 ae 77 40 43 06 18 4f 43
       201.29008 189.25722 192.4675 207.09384
000040 bd f8 40 43 40 e5 42 43 0a e3 96 c2 a8 fe 48 43
       192.97163 194.89551 -75.443436 200.99475
000050 ac 58 41 43 10 1b 49 43 d6 af 49 43 45 c4 05 c1
       193.34637 201.10571 201.68686 -8.360417
000060 88 fc 3e 43 06 2d 41 43 eb 03 97 c2 56 bf 52 43
       190.98645 193.17587 -75.50765 210.7474
000070 6f 46 4a 43 58 5e 99 c2 70 0b 43 43 34 c1 49 43
       202.27513 -76.684265 195.04468 201.7547
000080 a0 0a 4b 43 3b 9d 4a 43 22 7a 3f 43 68 14 4b 43
       203.0415 202.61418 191.47708 203.07971
000090 9c 01 4a 43 6a 55 49 43 64 24 40 43 bc 26 4a 43
       202.00629 201.33365 192.14215 202.1513
0000a0 c3 c4 49 43 d5 9b 40 43 5a 3b 4c 43 e0 5b 38 43
       201.7686 192.60872 204.23184 184.35889
0000b0 f4 08 4c 43 5a 6a 49 43 ce 8f 3f 43 db 77 93 c2
       204.03497 201.41544 191.56174 -73.73409
0000c0 a3 ca 3f 43 83 58 39 43 75 2c 4b 43 9d 8b 49 43
       191.79155 185.34575 203.17366 201.54536
0000d0 2f d3 4b 43 c9 dd 3a 43 12 bf 3e 43 4e 8c 98 c2
       203.82494 186.86635 190.74637 -76.27403
0000e0 24 24 49 43 4e f7 a1 c2 f6 a9 4a 43 79 ba 3f 43
       201.14117 -80.98302 202.66391 191.72841
0000f0 fe df 4a 43 77 9e 3e 43 03 0c 3f 43 51 d1 42 43
       202.87497 190.619 191.04692 194.81764
000100 75 57 43 43 ca d7 4e 43 e4 5c 37 43 92 e3 4b 43
       195.34163 206.84293 183.36285 203.88895
000110 d0 70 40 43 c6 f6 44 43 0b df 3e 43 33 82 4b 43
       192.44067 196.96396 190.87126 203.50859
000120 fb 44 98 c2 57 26 40 43 b7 99 4c 43 75 39 3b 43
       -76.13473 192.14977 204.60045 187.22444
000130 fa 68 95 c2 bd d6 3d 43 d6 d7 95 c2 70 db 51 43
       -74.70503 189.83882 -74.921555 209.85718
000140 fd 86 51 43 65 bc 4a 43 9e bc 40 43 3e f5 4a 43
       209.5273 202.73592 192.73679 202.95798
000150 2e c5 3f 43 5c d9 4a 43 a5 b4 3f 43 9a 4f 40 43
       191.77023 202.84906 191.70564 192.31094
000160 ba 97 47 43 57 e7 3f 43 be 4b 4c 43 73 12 42 43
       199.59268 191.90367 204.29587 194.07207
000170 be 89 41 43 46 3d 92 c2 06 67 4c 43 c4 75 3f 43
       193.53806 -73.119675 204.40244 191.46002
000180 27 26 4c 43 9b c9 3d 43 cd ac 49 43 17 73 98 c2
       204.14903 189.78752 201.675 -76.224785
000190 b2 02 41 43 db aa 49 43 dc 7d 43 43 07 9b 40 43
       193.01053 201.6674 195.49164 192.60558
0001a0 2d a7 40 c1 e4 aa 40 43 4b c0 3f 43 f7 21 3f 43
       -12.040814 192.66754 191.75114 191.13268
0001b0 b2 b3 3e 43 32 52 49 43 d8 bd 3f 43 f0 7a 42 43
       190.70193 201.32108 191.74158 194.48022
0001c0 c2 dd 95 c2 33 59 4a 43 52 22 48 43 00 3d 98 c2
       -74.93312 202.34843 200.13406 -76.11914
0001d0 e7 ab 3e 43 ba 0d 3e 43 77 76 42 43 f8 1a 3f 43
       190.6715 190.05362 194.46275 191.10535
0001e0 50 d3 3f 43 27 5c 4c 43 70 dd 3c 43 73 9b 3a 43
       191.82544 204.35997 188.86499 186.60722
0001f0 c5 d2 4a 43 5d 1f 40 43 84 a5 2f 43 43 19 9c c2
       202.82332 192.12251 175.64655 -78.04934
000200 e7 db 47 43 b3 d2 48 43 06 48 56 43 06 22 3e 43
       199.859 200.82304 214.28134 190.1329
000210 5e 29 4e 43 d5 60 4a 43 81 90 4b 43 b8 60 40 43
       206.16159 202.37825 203.56447 192.3778
000220 88 49 38 43 7b ad 3f 43 ae b8 41 43 f8 28 3f 43
       184.28723 191.67766 193.7214 191.16003
000230 cf e1 10 c1 82 26 40 43 58 d2 51 43 c9 d2 3d 43
       -9.055129 192.15042 209.82166 189.82338
000240 21 59 3b 43 ce a5 3f 43 2d 88 40 43 18 3b 3f 43
       187.34816 191.64767 192.53194 191.23083
000250 9f 88 49 43 62 76 3f 43 09 d8 3f 43 e3 80 98 c2
       201.53368 191.46243 191.84389 -76.25173
000260 0f 41 40 43 99 ba 49 43 0d 04 4a 43 33 27 42 43
       192.25414 201.7289 202.01582 194.15312
000270 90 01 4a 43 63 a6 4d 43 4b 4d 4a 43 4e 91 3f 43
       202.0061 205.64995 202.30193 191.5676
000280 93 8d 3f 43 60 a1 48 43 a2 06 29 c1 71 d8 4a 43
       191.55302 200.63037 -10.564119 202.84547
000290 f6 fa 3f 43 5e 42 3f 43 a6 c9 33 43 5d 99 40 43
       191.98032 191.25925 179.78769 192.59908
0002a0 7c 73 3b 43 f1 00 4b 43 8d d0 3d 43 fd 08 3f 43
       187.45111 203.00368 189.81465 191.03511
0002b0 ee 03 3e 43 be 87 4d 43 7f 3b 4f 43 7c af 3f 43
       190.01535 205.53024 207.2324 191.68549
0002c0 5b eb 42 43 10 75 4b 43 13 87 96 c2 c4 99 40 43
       194.91936 203.45728 -75.26382 192.60065
0002d0 5d 63 98 c2 48 08 49 43 03 8b 4a 43 f0 1c 3f 43
       -76.19407 201.03235 202.54301 191.11304
0002e0 48 d3 95 c2 2c c5 4a 43 0e bf 3f 43 65 d8 95 c2
       -74.91266 202.7702 191.7463 -74.922646
0002f0 e3 f9 37 43 b4 3a 49 43 0c 4f 3c 43 f5 af 3f 43
       183.97612 201.22931 188.30878 191.68733
000300 9c 03 4a 43 dc ae 3f 43 5d 45 41 43 fb 66 49 43
       202.0141 191.68304 193.27095 201.40227
000310 fd 79 51 43 c5 8e 4f 43 02 29 9b c2 d8 c7 48 43
       209.47652 207.5577 -77.58009 200.78064
000320 74 67 4c 43 a7 9c 36 43 7f 19 48 43 31 d2 43 43
       204.40411 182.61192 200.0996 195.82106
000330 b4 96 41 43 db 86 49 43 7e 6d 36 43 db f8 3b 43
       193.58868 201.52678 182.4277 187.97209
000340 26 bd 49 43 ae 11 35 43 14 43 34 43 9c e7 95 c2
       201.73886 181.06906 180.26202 -74.95236
000350 79 c6 48 43 cb c5 3e 43 65 64 49 43 fc f6 3e 43
       200.77528 190.77263 201.39217 190.96478
000360 b6 9a 3a 43 85 4e 53 43 af 38 39 43 ea 96 41 43
       186.60434 211.30672 185.22142 193.58951
000370 be c5 55 43 63 5a 3d 43 49 13 3e 43 07 eb 49 43
       213.77243 189.35307 190.07533 201.91808
000380 19 50 49 43 99 73 45 43 b7 59 55 43 73 7a 4a 43
       201.31288 197.45155 213.35045 202.47832
000390 29 07 57 43 af f9 42 43 a1 d9 4c 43 5b ff 42 43
       215.02797 194.97533 204.85011 194.99748
0003a0 22 36 43 43 21 ce 4a 43 52 60 3f 43 5d d2 4b 43
       195.21146 202.80519 191.37625 203.82173
0003b0 c1 27 96 c2 19 92 4a 43 86 51 3f 43 16 c5 4b 43
       -75.077644 202.5707 191.31845 203.76987
0003c0 73 5a 98 c2 26 50 3f 43 1d 21 4c 43 63 34 49 43
       -76.17666 191.31308 204.12935 201.20464
0003d0 4c b4 3e 43 fd d8 48 43 eb f7 3b 43 13 7a 42 43
       190.70428 200.84761 187.96843 194.47685
0003e0 e2 12 57 43 47 57 4b 43 8a 1b 40 43 39 11 4b 43
       215.07376 203.34093 192.10757 203.06728
0003f0 e8 2e 51 43 ba fe 4c 43 d2 66 98 c2 99 f2 3d 43
       209.18323 204.99503 -76.20082 189.94765

fc2.bias f4 [256]
000000 6b 57 3f 43 5e e7 3e 43 4e 21 f7 bd 98 f6 3b 43
       191.34148 190.90378 -0.12066899 187.96326
000010 a9 49 3e 43 d5 d5 3e 43 9a c8 2e be 51 b5 8b 3f
       190.28773 190.83528 -0.17068711 1.0914708
000020 02 77 3d 43 90 37 fe 3e 11 22 cd 3d 01 b4 3e 43
       189.46487 0.49651766 0.10016263 190.70314
000030 e5 7b 3e 43 8d c6 4d be 4f 65 33 3d 6b c1 3d 43
       190.48396 -0.20095272 0.043797787 189.75554
000040 d9 07 3f 43 bb 57 3e 43 4c 31 3f 43 3a 4c 4f bc
       191.03065 190.3427 191.19257 -0.012652451
000050 45 db 3d 43 8f 3e 3f 43 62 b9 3e 43 6b e0 3c 43
       189.85652 191.24437 190.72415 188.87663
000060 2c e2 3e 43 d4 26 3f 43 1c 6b 3e 43 3f a6 29 3e
       190.88348 191.15167 190.4184 0.16567324
000070 a5 5f 93 bd 3c 73 3f 43 61 f4 3d 43 d7 62 3d 43
       -0.07195977 191.45013 189.9546 189.3861
000080 1f 15 3d 43 9c 32 3f 43 39 22 3c 43 7c 97 64 3d
       189.0825 191.1977 188.13368 0.05580853
000090 c5 c5 3c 43 ea 57 3e 43 39 0c 3f 43 02 17 3e 43
       188.77254 190.34341 191.04774 190.08987
0000a0 9f 18 3f 43 97 a4 3e 43 7b 32 af bb 7e 57 3f 43
       191.09618 190.64293 -0.005346594 191.34177
0000b0 10 7f 3d 43 68 5e 5f 3e 31 de 3d 43 9b 46 70 bc
       189.49634 0.21813357 189.86794 -0.014665271
0000c0 ca b4 3d 43 f3 69 e3 bc e3 fc 3e 43 28 76 3e 43
       189.7062 -0.027760481 190.98784 190.46155
0000d0 3d 8a 3e 43 a9 4d 3f 43 f4 c3 3d 43 f5 4d 65 3e
       190.54 191.30336 189.76544 0.2239302
0000e0 b3 65 2a be 29 59 3e 43 76 c7 3e 43 65 7e 3d 43
       -0.16640358 190.34828 190.77914 189.49373
0000f0 76 4a 3f 43 4e 22 3e 43 00 72 3e 43 ae 75 3e 43
       191.29086 190.134 190.44531 190.45969
000100 9d 16 3f 43 2a 13 3e 43 49 15 3e 43 4e 6d 3b 43
       191.08833 190.07486 190.08315 187.42697
000110 68 00 3f 43 a3 eb 3e 43 c5 af a0 3f 98 0c 3f 43
       191.00159 190.92046 1.2553641 191.0492
000120 f7 df 48 3e 6a 44 3f 43 bf c5 5c bc e9 dc 3b 43
       0.19616686 191.26724 -0.013474881 187.86293
000130 ae 9e 3e 43 a8 a0 63 bc d8 d1 d3 3d fb a9 f6 3d
       190.61984 -0.013893284 0.10342759 0.1204414
000140 c9 45 3d 43 c3 22 3c 43 08 21 51 3c d6 af ea bd
       189.2726 188.13579 0.012764223 -0.11459319
000150 8d 55 83 bc 1b 21 3e 43 57 31 92 bd 57 c1 8d 3f
       -0.016032005 190.12932 -0.07138317 1.1074628
000160 ef 21 3e 43 19 c9 3e 43 d6 16 3f 43 2d 2c 3f 43
       190.13255 190.78554 191.0892 191.17256
000170 04 77 3e 43 49 fb 3e 43 09 fa 3e 43 f1 6b f8 3f
       190.4649 190.98158 190.9767 1.9407941
000180 cf 3f 3e 43 81 31 3f 43 ab 56 0c 3e 4b ea 3e 43
       190.24925 191.19337 0.13704936 190.9152
000190 be 2f 3e 43 54 f5 92 bc 76 81 70 3f b5 2b 3f 43
       190.1865 -0.017939247 0.9394754 191.17073
0001a0 a0 77 85 be 8d 3a 46 3b 8d e3 3d 43 6d 2b 3f 43
       -0.2606783 0.0030247301 189.88887 191.16963
0001b0 00 a3 3d 43 25 f8 ca 3f 07 d2 3e 43 37 f0 58 3e
       189.63672 1.5856978 190.82042 0.21185385
0001c0 9d d3 3d 43 1e 2c 3f 43 74 0a 3e 43 cc c3 3e 43
       189.82661 191.17233 190.04083 190.76483
0001d0 8c ed e8 bc c4 e7 0c bc 7f 37 3f 43 40 db 3d 43
       -0.028433584 -0.008600179 191.21678 189.85645
0001e0 a0 e4 3e 43 42 6b 5f be 6e 2f 08 40 13 d2 3e 43
       190.89307 -0.2181826 2.1278949 190.8206
0001f0 c2 20 3f 43 6e b9 3e 43 0e 11 3e 43 6e 2f 3f 43
       191.12796 190.72433 190.06662 191.18527
000200 48 a4 65 3e 4c cd 3e 43 e3 e2 3c 43 36 85 9d 3e
       0.2242595 190.80194 188.88628 0.30765694
000210 df a9 06 40 c8 3c 3e 43 94 51 3f 43 58 f0 3d 43
       2.104118 190.23743 191.31866 189.93884
000220 30 e1 3e 43 4b f0 3e 43 db 40 0a be 42 3d 3e 43
       190.87964 190.93864 -0.13501303 190.23929
000230 9c f4 3e 43 33 48 3f 43 6a 23 6e bc 87 4d 3f 43
       190.9555 191.28203 -0.014534811 191.30284
000240 b2 25 82 3f ad 4d 3f 43 d3 a6 3e 43 d0 43 06 be
       1.0167754 191.30342 190.65166 -0.13111806
000250 4d 9c 3e 43 bb 06 61 3e 78 31 e4 bd 0b 06 3d 43
       190.61055 0.21975224 -0.11142248 189.0236
000260 5c 04 3f 43 a9 95 3d 43 b2 e8 3e 43 46 84 3d 43
       191.01703 189.58461 190.90897 189.5167
000270 e5 04 3d 43 83 ce 3e 43 f2 d7 3d 43 71 fd 99 3f
       189.01912 190.80669 189.84354 1.2030469
000280 98 ca d2 bc f9 6b 3f 43 1f b3 3e 43 bf 1e 3f 43
       -0.02573137 191.42177 190.69969 191.1201
000290 fe 22 3f 43 3a 45 3e 43 6f af 3e 43 27 39 5e 3e
       191.13669 190.27042 190.68529 0.2170149
0002a0 7a bf 3e 43 44 93 3e 43 77 5e 3d 43 9b aa 3e 43
       190.74796 190.57526 189.369 190.66643
0002b0 d0 e5 3e 43 60 3e 02 3e 3b ec 3e 43 0d 0a 3f 43
       190.8977 0.12719107 190.92278 191.03926
0002c0 dd 32 3f 43 7d d8 b6 bd cb a0 3e 43 b8 c2 3e 43
       191.19868 -0.089280106 190.6281 190.76062
0002d0 15 5e 8b 3f ae 2b bb be bb 51 3f 43 d1 c6 10 be
       1.0888087 -0.36556762 191.31926 -0.14138342
0002e0 4d d6 3e 43 09 0f 3f 43 a8 a4 49 3e e5 b8 3e 43
       190.83711 191.05873 0.19691718 190.72224
0002f0 fb 88 3d 43 57 b4 3e 43 64 fb 3e 43 77 26 57 be
       189.53508 190.70445 190.982 -0.21010767
000300 64 b3 3e 43 57 4f 3b 3e 23 7f 5d 3f 80 9d 37 3f
       190.70074 0.18291984 0.8652212 0.717247
000310 77 d2 3e 43 64 76 3e 43 bd d5 1b 3e 26 0a 0c be
       190.82213 190.46246 0.15218253 -0.13675746
000320 78 5a 3f 43 26 ef 3e 43 dc 1b 3d 43 fb e1 3d 43
       191.3534 190.93417 189.10883 189.88274
000330 1b ce 3e 43 90 5b 3f 43 7f 67 3e 43 55 d4 3e 43
       190.8051 191.35767 190.40428 190.82942
000340 26 30 06 3e 65 6f 3e 43 16 7d 3e 43 13 c5 86 3f
       0.13104305 190.43513 190.48862 1.0528892
000350 5a 1a 3f 43 3b 40 3d 43 d8 7a 4a 3f bf 75 3e 43
       191.10294 189.2509 0.79093695 190.45995
000360 e2 57 8f 3f 37 1f 3f 43 f2 c1 3e 43 0b ff 3e 43
       1.1198695 191.12193 190.7576 190.99626
000370 11 08 3f 43 1d e2 3e 43 a2 be 3e 43 fa 04 3e 43
       191.03151 190.88326 190.74466 190.01944
000380 50 8d ba be 42 67 3d 43 02 9d 3e 43 40 34 3f 43
       -0.36435938 189.40335 190.61331 191.2041
000390 6d 4e 3f 43 a2 dd 5f bd 4b 43 81 bd 54 27 3e 43
       191.30635 -0.054654725 -0.06311663 190.15363
0003a0 97 d8 3e 43 2c 7d 3f 43 c8 f7 98 3e 7c 69 3e 43
       190.84605 191.48895 0.29876542 190.41205
0003b0 f1 04 29 3e 66 83 3f 43 09 ae 3e 43 2c 14 5c be
       0.16505791 191.51328 190.67982 -0.2149207
0003c0 82 2f 51 3e 17 f4 3d 43 ac 19 3f 43 43 12 3f 43
       0.20428279 189.95348 191.10028 191.07133
0003d0 da cf 3e 43 d7 3d 3e 43 70 89 60 3e ac 0d 3f 43
       190.81192 190.24156 0.21927428 191.0534
0003e0 57 39 a8 3f 47 4e 19 3e ea 67 3e 43 53 5c 3f 43
       1.3142499 0.14971267 190.40591 191.36064
0003f0 5a f8 3e 43 ac 2c 3e 43 f9 f4 77 be c6 66 3f 43
       190.97012 190.1745 -0.24214543 191.40146

fc3.weight f4 [256, 256]
000000 56 30 9a 3d 8f b3 05 3f 01 72 d6 be 2d 08 f9 3f
       0.075287506 0.5222711 -0.41883853 1.945562
000010 e5 3d 14 c0 62 74 f4 3e 01 8d 75 c0 0b 8f dd 3f
       -2.3162777 0.47745043 -3.8367312 1.7309278
000020 10 5f 31 3f 4c b3 52 3f c6 a3 87 40 ef 7b a0 3e
       0.6928568 0.82304835 4.238742 0.31344554
000030 18 81 e1 3d f2 a6 c5 c0 d7 e8 95 bf cf 4b 04 40
       0.11010951 -6.176629 -1.1711682 2.067127
000040 15 01 ce bf da 09 84 be 59 db b4 bf f1 21 20 c0
       -1.609408 -0.25788766 -1.412944 -2.5020716
000050 38 90 46 c0 b0 b8 96 3e 64 6c 8d bd f9 77 84 40
       -3.1025524 0.2943778 -0.069054395 4.139645
000060 20 7a 66 bf 60 ab d9 3d 2b 32 cb 3f 44 b5 91 40
       -0.900301 0.1062839 1.5874685 4.553377
000070 08 0a df bf fa 66 88 be e7 53 83 bf d3 7e f2 bf
       -1.7424936 -0.26641065 -1.025998 -1.8944954
000080 f2 2c aa 3f 26 84 39 bf cb 44 3f 40 aa b5 8d bf
       1.3294966 -0.7246727 2.9885738 -1.1071064
000090 27 f1 7c 3f c6 b1 80 bf 45 cf b1 bf 8e fd 5a c0
       0.9880547 -1.0054252 -1.3891379 -3.4217257
0000a0 70 12 8c 3e e3 98 aa 3e d0 a8 e2 3d 46 39 b7 3e
       0.27357817 0.33319768 0.11067355 0.35785884
0000b0 cf 62 22 3e d7 b7 e1 be dc 51 22 c0 c9 2f 6d bd
       0.15858005 -0.4408557 -2.5362463 -0.0579069
0000c0 09 7d 8d 3d a3 98 92 bd c9 9f af 3d 37 67 17 3f
       0.06908614 -0.071580194 0.085753985 0.5914187
0000d0 1f 5d 7b bd 41 c9 d7 3d 15 4b 0f 40 f3 9c 89 40
       -0.061368104 0.10536433 2.2389576 4.300409
0000e0 b8 22 d7 bf 28 62 4f 3f 43 a5 89 3e e5 ff ef 3e
       -1.680747 0.8100915 0.26883897 0.4687492
0000f0 04 64 fe be 9a 00 95 3e c7 50 39 3f c1 bb f7 bf
       -0.4968568 0.2910202 0.7238888 -1.9354173
000100 05 15 e7 bc d0 25 4c 3f 9d e9 1c bf 2f b0 a9 40
       -0.028208265 0.797452 -0.61293966 5.302757
000110 fb 45 b4 bd 85 0d f6 3f 96 43 ef 3f ff f4 89 bf
       -0.0880241 1.9222876 1.86925 -1.0777892
000120 97 b2 62 40 b9 20 92 be d8 2f f2 bc 4c 62 a9 3f
       3.5421503 -0.2854059 -0.02956383 1.3233123
000130 3d a0 20 c0 32 53 d3 bd 56 95 42 40 0a ec 7f 40
       -2.5097802 -0.103186026 3.0403647 3.9987817
000140 99 3a 94 3f 6f 3a 7f 40 56 4c 08 c0 c5 f8 2e c0
       1.1580383 3.9879415 -2.1296592 -2.7339337
000150 32 3b 03 3d c7 a1 04 c0 68 32 6e c0 a1 8e 04 40
       0.032038875 -2.072374 -3.7218266 2.0712054
000160 15 56 24 3f 52 93 07 bf b0 1b bf 3e 77 f7 d1 bf
       0.6419385 -0.5295917 0.3732581 -1.6403645
000170 73 e0 c7 3f 0f 96 02 bd 42 5d 50 bf c4 00 32 40
       1.5615371 -0.03188139 -0.813923 2.7812967
000180 0e 6e 0a 3f 40 c6 b1 3e 28 e0 56 40 77 89 e5 3e
       0.5407418 0.34721565 3.3574314 0.4483144
000190 23 9f 6f 3f 41 41 6d bd e5 43 af 3f 85 68 77 3e
       0.936022 -0.05792356 1.3692595 0.24160965
0001a0 95 1d 18 c0 40 e8 00 be fd 27 81 c0 5b 82 1b 3e
       -2.3768055 -0.12588596 -4.0361314 0.15186445
0001b0 6a 85 a0 40 3b ef ee 3f ca 6c b8 3e bf ef 15 40
       5.016286 1.8666757 0.360205 2.342758
0001c0 7d ef 64 3f 0c d2 36 bf 4a 0b 90 bf f5 e6 fa bf
       0.8942793 -0.71414256 -1.1253445 -1.9601732
0001d0 e1 38 d6 be 81 2c 21 bd 87 90 19 3f 5f e3 85 c0
       -0.4184027 -0.039349083 0.59986156 -4.1840053
0001e0 cf 67 38 bd 0c 7b 8e bf c0 19 3b 40 66 8e 32 3f
       -0.045020875 -1.1131301 2.9234467 0.6974853
0001f0 4a 24 14 be ad 78 3d c0 37 f0 3a 3f f4 52 83 bf
       -0.14466968 -2.9604905 0.7302279 -1.025969
000200 be 84 f3 3f a1 ae d9 3e 24 57 5e 3f b4 42 99 c0
       1.9024885 0.42516044 0.86851716 -4.7893925
000210 e9 dd a6 3f bc 9c c8 bf 5e 9a a8 3f 5b 3b ec be
       1.3036472 -1.5672832 1.3172109 -0.46139035
000220 49 50 75 3e cd 57 1f be 9c 3a a0 c0 37 09 ae bf
       0.23956408 -0.15560837 -5.0071545 -1.3596562
000230 c3 92 07 bd c3 f9 19 c0 c1 65 a1 3d 10 e5 02 3f
       -0.033098947 -2.4058692 0.07880736 0.5113077
000240 b9 e3 5e 3f e3 ff c2 3e a5 15 87 3f c9 2c 0d c1
       0.8706623 0.3808585 1.055348 -8.823434
000250 a1 da d7 be 09 93 1b 40 ad b5 f2 bf 5c 03 49 3f
       -0.42158988 2.4308493 -1.8961693 0.7852075
000260 3b a9 d7 bf db 62 6e 3f af b1 bc 3e f4 02 bb 3f
       -1.684852 0.9311959 0.36854312 1.4610276
000270 d7 e5 49 3f 4e 4f 51 c0 3e f6 6c c0 3f ff 17 40
       0.7886633 -3.2704654 -3.7025294 2.374954
000280 f9 fa 5d c0 fc a8 0e bf 69 0c a4 3e 49 1a e3 3e
       -3.4684432 -0.557266 0.32040718 0.4435599
000290 9e b1 d4 bd 10 ef 1f c0 6d 38 db 3d 33 ae 16 40
       -0.1038544 -2.4989662 0.10704122 2.3543823
0002a0 61 6f 74 3f 64 b9 5e 3f 9b dd 64 3f 6d 94 f0 be
       0.9548245 0.87001634 0.89400643 -0.4698824
0002b0 3e 59 9a 3d a2 e1 60 40 16 9d 80 3e b6 70 4a 3e
       0.07536553 3.5137715 0.25119847 0.19769558
0002c0 c6 38 5d 3e 9d 1d 68 c0 3e 32 11 bf bd 3f d3 be
       0.21603689 -3.6268075 -0.5671729 -0.41259566
0002d0 8d f0 00 40 82 75 96 c0 2c f7 83 3d 5b 6a 93 c0
       2.014682 -4.701844 0.06443629 -4.606733
0002e0 d8 24 c2 be 86 43 8e be d4 de 90 be 01 b3 f2 bd
       -0.37918735 -0.2778589 -0.28295004 -0.118505485
0002f0 18 c9 12 3f 00 3c 37 be 98 c1 87 3e e6 d8 f2 bf
       0.57338095 -0.17893982 0.26514888 -1.8972442
000300 86 52 20 3e a3 5b 08 40 4c 6f a5 3f 26 86 50 bf
       0.1565648 2.130593 1.292459 -0.81454694
000310 8b 25 33 c0 f8 54 05 c0 e8 34 29 40 84 58 d1 bf
       -2.7991664 -2.083311 2.6438541 -1.6355138
000320 2d 4d 2f be 64 88 a1 bb 93 77 2a 40 dc b2 14 bf
       -0.17119284 -0.004929589 2.6635482 -0.5808542
000330 1f dd cd be 03 45 9a 3e 91 7b 67 3e 0d 9f 8b 3e
       -0.40207765 0.30130777 0.2260573 0.27269784
000340 cd ad 1a 40 ff d9 81 3e a8 8d 50 bf fa 44 c6 3f
       2.416858 0.2536163 -0.8146615 1.54898
000350 72 1d b7 bf 3a 73 42 3f 95 37 35 3f fe ef 10 be
       -1.4305861 0.7595707 0.70787936 -0.1415405
000360 fd e0 ae 3f 53 b7 54 3f 0c ab 52 3e eb 4f 03 bf
       1.3662411 0.8309223 0.20573062 -0.5129382
000370 37 b6 4e bd da a8 c7 bd 95 ce d8 3e 93 8d 4a c0
       -0.050466742 -0.09749003 0.4234511 -3.164891
000380 d7 cb c5 bf 44 f8 2a 40 a4 d2 82 bf b2 10 bb 3e
       -1.5452832 2.671403 -1.0220532 0.36536175
000390 8b b5 b6 3d 9d 25 be be 43 07 27 3c 33 b8 52 bf
       0.08921345 -0.37138072 0.010194602 -0.82312316
0003a0 e7 fa f8 bf 60 b9 b3 bd 48 f6 3e 3f 52 fc 2d 3e
       -1.9451569 -0.08775592 0.74594545 0.16990784
0003b0 d6 31 d7 3f e7 68 9c be 95 f1 2c c0 73 33 37 c0
       1.6812084 -0.30548784 -2.702245 -2.8625152
0003c0 41 08 db 3f 79 28 a0 bf 18 18 cf 3d 0d 95 b6 3e
       1.7111894 -1.2512351 0.101120174 0.35660592
0003d0 2e 97 d4 bf 67 d1 54 c0 90 25 23 40 7d a4 d7 3d
       -1.6608636 -3.325281 2.5491676 0.105294205
0003e0 9b a2 24 40 18 a6 2c 40 09 1c 24 be c4 ac c3 3e
       2.5724247 2.6976376 -0.1602632 0.38217747
0003f0 f4 8d c5 3e c6 33 d9 3f 6a 80 b0 bf b7 2b 84 3d
       0.38584864 1.6968925 -1.3789189 0.064536504

fc3.bias f4 [256]
000000 65 57 cc 3e ff 4b 62 3f 09 49 0a 41 ad 80 08 41
       0.39910427 0.8839721 8.642831 8.531415
000010 f3 66 0a 41 9e 12 0a 41 72 87 e5 40 6f a6 0c 41
       8.650134 8.629545 7.172784 8.790633
000020 68 8d a5 40 5c 8c 0d 41 6b c8 00 41 a7 20 0e 41
       5.1735115 8.846767 8.04893 8.882972
000030 bf 9c e2 40 5f bd 03 be 55 a8 7e bc 1f 12 04 41
       7.081634 -0.12865208 -0.015543063 8.254424
000040 72 a7 d0 40 92 e0 1c 3e 2b 89 ab bc 5f 78 06 41
       6.52044 0.15320042 -0.02093943 8.404387
000050 9a 6e 98 40 7b f4 0c 41 65 43 b5 40 e4 6c 86 3f
       4.763501 8.809688 5.664477 1.0501981
000060 6e a2 fd 40 c5 25 e5 40 dc 70 0a 41 49 b8 0e 41
       7.926078 7.1608605 8.652554 8.9199915
000070 09 f5 72 3e 4e 17 04 41 d2 1a f2 40 a2 e4 09 41
       0.23726286 8.25569 7.565774 8.618319
000080 b1 c7 7f bd 26 05 ee 40 0b b9 3b 3a 63 18 10 41
       -0.0624463 7.4381285 0.00071610574 9.005954
000090 5e 39 a6 40 cc ee e7 bc de 5d 0b 41 e6 db 09 41
       5.194503 -0.02831211 8.710417 8.616186
0000a0 cf 10 08 41 05 1c 96 3d f2 1d d9 3f 97 7b 0c 41
       8.504104 0.07329563 1.6962264 8.780173
0000b0 a7 0c b3 3e 80 a4 0a 41 ab 32 84 bc e7 b2 07 41
       0.3497059 8.665161 -0.016137442 8.481177
0000c0 52 46 cc 3e 36 dc 67 3e 15 3e 07 41 87 4c 07 41
       0.398974 0.22642598 8.452657 8.456183
0000d0 a2 32 88 3d f3 4a 4e 3f 48 29 0e 41 b6 ca 96 3c
       0.066502824 0.80583113 8.885078 0.018407207
0000e0 ee a6 09 41 91 14 0a 41 95 e0 d1 40 4b 76 b7 40
       8.603254 8.630021 6.558665 5.73319
0000f0 35 19 26 3e d5 4f 29 40 94 a2 cf 40 e5 2e 97 be
       0.16220553 2.6454976 6.488596 -0.29527965
000100 e9 9a f0 3e d1 d0 89 3e 05 d8 a4 3f ee 83 ac 40
       0.46993187 0.26917127 1.2878424 5.3911047
000110 d8 85 c4 bc b7 77 78 3f bd e6 0b 41 e2 0a 09 41
       -0.023989603 0.9705767 8.743833 8.565157
000120 c6 1e 19 41 23 20 04 41 d8 cd dd 40 c3 76 04 41
       9.570013 8.257846 6.9313774 8.278995
000130 6b 5a fe bb 78 26 01 41 d0 10 03 41 4c 2a 0d 41
       -0.0077622435 8.071892 8.191605 8.822826
000140 10 14 09 41 cd c2 28 40 50 69 0c 41 a2 3e 13 bc
       8.567398 2.6368897 8.775711 -0.008987101
000150 af a6 fc bc a1 0d 40 40 bc f0 06 41 92 68 84 be
       -0.0308412 3.0008318 8.433773 -0.2586103
000160 71 25 ca 40 1f 3e c7 3e a7 19 09 41 56 ca f1 40
       6.3170705 0.38914582 8.568763 7.555949
000170 ae e3 03 41 15 22 e6 40 92 1e 79 40 f6 3c 0d 41
       8.243086 7.1916604 3.8924909 8.827383
000180 9b ef ac 3f 2c 3c 0c 41 a2 75 0e 41 48 37 07 41
       1.3510622 8.76469 8.903719 8.450996
000190 64 09 85 3e 77 35 0c 41 48 9c 0e 41 16 57 a9 40
       0.25983727 8.763053 8.913155 5.2918806
0001a0 53 d4 0f 41 97 bc 02 41 5c 8e 18 40 36 03 0a 41
       8.989337 8.171042 2.383689 8.625784
0001b0 2f ad 36 bc 8a b7 e0 3f c3 ca 77 3e 78 24 09 41
       -0.011149689 1.7556012 0.24198441 8.5714035
0001c0 30 5a 03 41 9a 40 3c be 13 2d c7 40 74 ee 02 41
       8.209518 -0.18384019 6.224252 8.183216
0001d0 8f 8d a7 bb aa 18 01 41 dc f2 09 41 7d b7 09 41
       -0.0051133106 8.0685215 8.621792 8.607297
0001e0 91 e6 af bc 40 9b 01 41 1d 4d b7 40 b5 71 92 bc
       -0.021472247 8.100403 5.7281632 -0.017876485
0001f0 f1 bb fe bc b9 3a 13 41 fd ca 17 41 a2 d1 53 bc
       -0.031095477 9.201837 9.487058 -0.012928398
000200 8d dd 88 3e 4d 1e d6 3e 39 fc 06 41 17 74 05 41
       0.2673153 0.41819993 8.436578 8.340842
000210 cf 0b 17 41 9e d2 8a 3e 72 63 08 be 2a 49 00 40
       9.440383 0.27113813 -0.13319185 2.0044656
000220 3f f9 83 3e 1f 60 bf bc 40 74 02 41 4d 79 0e 41
       0.25776097 -0.023361264 8.153381 8.904614
000230 e6 e7 06 41 7d 19 0a 41 46 ff f1 40 f2 0f 09 41
       8.431616 8.631223 7.5624113 8.566393
000240 39 e6 6f 3e 1f 14 07 41 92 e1 0a 41 01 81 0b 41
       0.23427667 8.442412 8.680071 8.718995
000250 41 13 22 3e 0b 78 eb 40 97 32 02 41 a9 4c 3e 3f
       0.15827657 7.3584037 8.137351 0.74335724
000260 6f b8 e2 40 7b fc 0b 41 97 84 c5 40 3e ef 07 41
       7.085014 8.749141 6.1724353 8.495909
000270 fc 7a 0d 41 32 71 ee 40 fd 37 6a bc 71 b9 4d 3e
       8.8425255 7.451318 -0.014295575 0.20090272
000280 df f8 02 41 b7 b9 c0 3e ed d3 00 41 82 ac dc 3f
       8.18576 0.3764169 8.05174 1.7240145
000290 d5 86 9f bc 19 8a 28 40 d3 0e 09 41 40 e7 24 40
       -0.019473473 2.6334288 8.566119 2.5766144
0002a0 aa a6 3b ba 65 26 1c 3e 17 42 32 bc 79 02 06 41
       -0.0007158319 0.15249021 -0.010880015 8.375604
0002b0 d4 70 a3 40 fa a8 07 41 24 03 34 bc aa 8a 0b 41
       5.107523 8.478754 -0.010987077 8.721354
0002c0 18 f6 0f 41 51 f2 04 41 2e bc ef 40 f2 77 04 3c
       8.9975815 8.309159 7.491721 0.008085238
0002d0 47 96 f6 40 bc e0 07 41 a1 00 0d 3d 3b f5 09 41
       7.7058444 8.492367 0.034424428 8.622371
0002e0 a1 8b 06 41 bc a2 76 3e f5 9c 0c 41 0d fa 0e 41
       8.409089 0.24085516 8.78832 8.936048
0002f0 a5 42 0b 41 b9 ae fb bd ef d3 ef be 7c 92 06 41
       8.703771 -0.12289185 -0.4684138 8.410763
000300 b4 03 0d 41 17 8e f6 40 26 cc 05 41 0e d2 a2 3e
       8.813404 7.704845 8.362341 0.31800884
000310 a8 45 0d 41 e2 31 f7 40 8e a2 0a 41 cc 95 a0 40
       8.829506 7.724839 8.664686 5.0182858
000320 55 00 c2 be 4e 65 59 bc 41 2a d3 3e 0c 13 06 41
       -0.37890878 -0.013268782 0.41243175 8.37965
000330 93 52 91 be 2b 49 0d 3f 05 51 ee 3f 01 53 94 3f
       -0.28383312 0.5518977 1.8618475 1.1587831
000340 77 72 09 41 03 0f 10 41 99 4e 0a 41 be 3f e3 3e
       8.5904455 9.003665 8.644189 0.4438457
000350 14 b7 07 41 e8 07 9f 3e 07 b7 d1 3e ea 30 34 bc
       8.482197 0.3106072 0.4095995 -0.01099799
000360 70 18 11 41 26 9c 3d 40 f1 86 d1 3f f2 80 14 41
       9.068466 2.9626555 1.6369306 9.281481
000370 8e 52 89 40 36 a0 04 41 65 c4 9b 40 24 d5 cf 40
       4.2913275 8.289114 4.867724 6.494768
000380 89 b1 fa 40 5c 48 db 40 c3 f8 0b 41 f6 b9 c1 3e
       7.834172 6.852583 8.748233 0.3783719
000390 2b 58 0c 41 16 6a ea 40 00 d4 01 bf 50 0d 0d 41
       8.771525 7.32545 -0.5071411 8.81575
0003a0 0e 9a a5 40 dc 39 0c 41 d5 c0 09 41 77 0a 98 be
       5.1750555 8.764126 8.609578 -0.29695484
0003b0 60 a5 8b 3e e5 58 0f 41 dc 2a 0d 41 52 bd b2 40
       0.2727461 8.959203 8.822964 5.5856104
0003c0 ba e5 0c 41 c4 e6 40 40 fa ef cc 40 0a 0b 71 3c
       8.806086 3.0140848 6.404294 0.014712105
0003d0 67 1a 0f 3f cc 5e 06 41 03 b4 c6 3e 94 1e 0a 41
       0.5589966 8.398144 0.38809213 8.632465
0003e0 cb 0f d9 3e c8 33 0f 3f ba 6b 06 41 87 c0 0e 41
       0.42394862 0.55938387 8.4013 8.922004
0003f0 ac d4 07 41 bc 16 3d bc 0b c1 0e 41 fb 94 09 41
       8.489422 -0.011541065 8.92213 8.598872

out.weight f4 [60, 256]
000000 be 60 79 3e ed b3 ae bf 80 5e fa 42 3c f3 fa 42
       0.2435331 -1.3648659 125.18457 125.47507
000010 25 0b fc 42 79 dc fa 42 ea d9 f9 42 27 2c fb 42
       126.02177 125.43061 124.92561 125.586235
000020 38 4b fc 42 f7 ff fa 42 22 e9 f9 42 a4 ab fb 42
       126.14691 125.49993 124.95534 125.835236
000030 97 19 fc 42 aa cd ed bf 55 9b 15 be 5e 8f fb 42
       126.04998 -1.8578389 -0.14610036 125.780014
000040 63 2c f8 42 17 c8 0c 3f 69 c3 16 3e 00 c5 fa 42
       124.08669 0.5499281 0.1472298 125.384766
000050 7b b0 f4 42 44 09 fb 42 8f a4 fc 42 ae 26 01 c0
       122.34469 125.5181 126.3214 -2.0179858
000060 7e b7 f8 42 52 2c fd 42 31 0e fb 42 64 17 fb 42
       124.35838 126.58656 125.52772 125.545685
000070 27 fb 2f 3f 1d 36 fb 42 9a e8 fb 42 a0 73 fb 42
       0.68742603 125.60569 125.9543 125.72583
000080 2a 17 cb bf 89 af fb 42 19 7b af 3d 8e dd fa 42
       -1.5866444 125.84284 0.08568401 125.432724
000090 9f 5b f9 42 08 61 38 3d 79 46 fb 42 69 d9 fa 42
       124.67895 0.04501441 125.63764 125.42463
0000a0 17 c6 fc 42 e6 98 16 3f d7 8e a1 bf d6 2b fb 42
       126.386894 0.58827055 -1.2621716 125.58562
0000b0 61 03 16 3f fe d8 fa 42 10 3f 2b 3d e1 86 fb 42
       0.58598906 125.42381 0.041808188 125.763435
0000c0 bc d2 73 3f 64 29 73 3f 13 a5 fb 42 4c 91 fa 42
       0.9524343 0.9498503 125.82241 125.28378
0000d0 ac 6d 5a 3f 96 fb fa 42 80 6b fb 42 37 77 0d c0
       0.85323596 125.49138 125.70996 -2.2104013
0000e0 9c 30 fb 42 51 72 fa 42 f2 4f fc 42 68 c7 fa 42
       125.59494 125.223274 126.15614 125.389465
0000f0 e0 1e 3b 3f 24 e7 f7 42 12 c5 fd 42 29 48 28 c0
       0.73093987 123.95145 126.8849 -2.6294043
000100 7b 9a fd 3e 05 47 b2 3f 77 55 f8 42 22 5f fc 42
       0.49531922 1.3927923 124.16692 126.18581
000110 9a b4 07 3e 4d 2a 18 c0 58 5f fb 42 a5 f5 fa 42
       0.13252488 -2.3775818 125.68622 125.479774
000120 fb 0c fd 42 a1 8b fa 42 71 0c fb 42 21 26 fb 42
       126.52535 125.27271 125.5243 125.57447
000130 cb 24 92 bd 33 7b fb 42 f8 06 fb 42 35 27 fb 42
       -0.07135924 125.74062 125.51361 125.57658
000140 2b df fb 42 56 44 85 3e cd fb fc 42 68 98 03 bd
       125.935875 0.260287 126.4918 -0.032127768
000150 67 d6 c4 bd e6 21 79 be 5b 8c fb 42 6b fe 0a c0
       -0.096112065 -0.24329337 125.77413 -2.1717784
000160 df b6 f6 42 ce e5 39 3f 80 41 fb 42 14 db fc 42
       123.35717 0.7261628 125.62793 126.42789
000170 ba cb fb 42 d7 5b fb 42 93 af f4 42 c4 8b fc 42
       125.8979 125.679375 122.34292 126.27298
000180 ed 19 6f bf 62 1f fb 42 8a 8f fb 42 da 99 fa 42
       -0.93398935 125.561295 125.78035 125.30049
000190 c8 cd 55 3f 54 88 fb 42 3c 19 fb 42 73 9b fa 42
       0.8351712 125.766266 125.549286 125.30361
0001a0 34 ec fa 42 93 9d fb 42 6c 83 a4 3e 70 a2 fa 42
       125.461334 125.80776 0.32131517 125.31726
0001b0 9a 70 0a be 55 f1 fc bf a9 b2 d8 bf 77 54 fb 42
       -0.13519517 -1.9761149 -1.6929523 125.66497
0001c0 47 4f fa 42 63 f4 5a 3f 18 f7 fa 42 9a 0c fc 42
       125.15484 0.85529155 125.482605 126.02461
0001d0 52 15 e6 bd 5f e0 fa 42 fd 25 fb 42 91 06 fb 42
       -0.11234535 125.438225 125.574196 125.512825
0001e0 f7 83 01 c0 12 92 fb 42 43 ae f9 42 74 26 b4 3f
       -2.0236795 125.78529 124.840355 1.4074235
0001f0 63 5a 16 be c7 21 fc 42 9b 11 fc 42 13 67 25 3d
       -0.14682917 126.06597 126.034386 0.040381502
000200 61 e5 b4 3f 04 48 2a 3f e9 34 fb 42 94 f2 fb 42
       1.4132501 0.6651614 125.60334 125.973785
000210 d5 58 fb 42 88 e2 80 3e c3 fb e3 bf e1 8e 00 3e
       125.6735 0.2517283 -1.7811207 0.12554504
000220 a6 8c 15 3f cc 3a 80 3d fc c0 fb 42 d1 7f fb 42
       0.5841774 0.062612146 125.87692 125.74964
000230 f3 54 fb 42 ff b6 fa 42 81 b5 fa 42 ae 83 fb 42
       125.66592 125.357414 125.3545 125.75719
000240 51 93 65 3f ec 7f fb 42 55 3a fb 42 0c b9 fa 42
       0.8967791 125.74985 125.61393 125.36142
000250 5f 22 3b 3f a0 a8 fb 42 b9 1c fb 42 0c 48 ee 42
       0.7309932 125.829346 125.5561 119.14072
000260 59 8b fa 42 ef 10 fb 42 17 7f fc 42 3f b6 fc 42
       125.27216 125.53307 126.24822 126.35595
000270 c5 8b fb 42 bc c4 fc 42 56 cf de bb 29 90 4e 3f
       125.77299 126.38425 -0.0067996187 0.8068872
000280 62 be fa 42 43 e1 8a 3f c2 5f fb 42 14 0a f8 42
       125.37184 1.0849994 125.68703 124.019684
000290 85 8f 56 3d 84 bb f9 42 37 57 fb 42 b3 ff f6 42
       0.052382965 124.86624 125.67034 123.49941
0002a0 4f 2f 48 bd 71 ff 6f 3e 9d 77 ed 3c 07 8f fb 42
       -0.048873242 0.23437287 0.0289877 125.77935
0002b0 08 e3 4c be 63 20 fb 42 68 30 00 3e 3e 92 fb 42
       -0.2000848 125.563255 0.12518466 125.78563
0002c0 25 81 fb 42 e0 9b fb 42 e1 cb f9 42 75 24 97 3f
       125.752235 125.80444 124.8982 1.1808001
0002d0 a9 b4 f9 42 7f ca fa 42 25 36 b9 bf 74 e3 fa 42
       124.85285 125.3955 -1.4469649 125.444244
0002e0 bc 31 fb 42 23 79 2d 3f 80 26 fb 42 31 c8 fb 42
       125.59714 0.67762965 125.575195 125.891
0002f0 4f 70 fb 42 e9 00 a5 bf 05 cf f2 bf 86 96 fa 42
       125.71935 -1.2890903 -1.8969427 125.29399
000300 fd 49 fb 42 2f c1 fb 42 08 9c fb 42 27 5a 44 3f
       125.64451 125.87731 125.80475 0.7670006
000310 fd 47 fb 42 43 a4 fc 42 ef 4e fb 42 e9 98 fa 42
       125.6406 126.32082 125.65417 125.29865
000320 78 a2 fd bf 0b 6f 0a 3d 04 41 07 c0 f6 c3 fa 42
       -1.9815207 0.033797305 -2.1133432 125.38274
000330 7c 94 ee bf 98 5f 49 c0 c5 d9 f7 42 c2 6a 9e 3f
       -1.8639064 -3.1464596 123.92533 1.237633
000340 21 9b fb 42 25 53 fb 42 8b 5e fd 42 77 fd 25 3f
       125.802986 125.66239 126.684654 0.6483988
000350 15 e1 fa 42 f1 23 a8 3f e6 d4 6c 3f 9c 65 e6 bd
       125.43961 1.3135968 0.9251236 -0.11249849
000360 ac 36 f9 42 ce a2 f9 42 0e 80 f8 42 bf 07 fb 42
       124.60678 124.81798 124.25011 125.51513
000370 82 4e fa 42 c2 0b fb 42 2d ca fa 42 f4 2d fb 42
       125.153336 125.522964 125.394875 125.58975
000380 bb 7a fb 42 0a 08 fb 42 70 9c f8 42 d5 6d 28 c0
       125.73971 125.5157 124.30554 -2.6317036
000390 d1 7a fb 42 5d 72 f9 42 81 e0 0d c0 f8 dc fa 42
       125.739876 124.723366 -2.2168276 125.43158
0003a0 08 87 fd 42 71 e7 fa 42 9e ae f9 42 e3 c1 97 c0
       126.76373 125.452034 124.84105 -4.742418
0003b0 f1 48 11 3f e0 55 fc 42 8f 79 fb 42 f8 67 fd 42
       0.56751925 126.167725 125.73742 126.703064
0003c0 34 ff fa 42 e8 9f df be 21 13 fb 42 99 89 1c 3d
       125.49844 -0.43676686 125.53736 0.03821716
0003d0 50 87 94 3f 5a de fa 42 54 96 19 3f 38 24 fb 42
       1.1603794 125.43428 0.5999501 125.57074
0003e0 14 4e 37 3f 65 c7 14 c0 3b fe fc 42 a1 69 fb 42
       0.7160351 -2.32467 126.496544 125.70631
0003f0 f3 00 fb 42 50 12 21 bd 9e 3e fa 42 3c 3a fc 42
       125.501854 -0.039324105 125.1223 126.11374

out.bias f4 [60]
000000 f5 e9 3f 3f 84 11 3a 3f c5 46 a8 3f 1d cc 0d 3f
       0.74966365 0.72682977 1.3146597 0.5538958
000010 75 9b 84 3f 9d 6f 7a 3d d4 7d e8 be df 07 61 3f
       1.0359942 0.0611416 -0.454085 0.87902635
000020 23 20 3a 3f c5 75 b5 3f 58 aa 59 bd ee 09 15 40
       0.72705287 1.4176565 -0.053140968 2.328731
000030 54 51 f2 3d 10 b9 93 3f d8 19 dc 3f 0b 68 8d 3e
       0.11831918 1.1540852 1.7195387 0.2761844
000040 91 03 65 3f 2a c3 5e 3f 29 c9 97 3c 61 25 16 bf
       0.89458567 0.87016547 0.018528538 -0.58650786
000050 f8 95 bd 3e ef df 30 3f f4 3c 3d 3f ea fb 0d 3f
       0.3702848 0.69091696 0.7392113 0.55462515
000060 14 3d c4 3f 0a f2 c6 3e f0 ff 6a 3e 02 ee 5b 3f
       1.533114 0.38856536 0.22949195 0.85910046
000070 5d 57 90 3e 4c 12 f8 3e 0c 8a b2 3e e6 1c 29 3f
       0.28191653 0.4845146 0.34870946 0.6605972
000080 34 85 14 3f e4 bd f3 3e 7d 2a ee 3c 02 dd 15 3e
       0.5801575 0.47605813 0.029072994 0.14635089
000090 5b 6b 7b 3f 0e 76 0c be dc 73 c6 3f d2 e4 15 3e
       0.98210686 -0.1371691 1.5504107 0.1463807
0000a0 d6 17 c9 be 5d 3d 38 3f 27 a4 e8 3e 06 b3 60 3f
       -0.39275998 0.7196863 0.45437738 0.8777317
0000b0 fe 3d 0b bd 1d c5 90 be de c4 07 3f 04 41 20 be
       -0.033994667 -0.28275385 0.5303477 -0.15649801
0000c0 58 26 55 3f fd 13 49 3f 75 0d 90 3e a9 7d 5f 3f
       0.8326163 0.78546125 0.28135267 0.8730112
0000d0 48 c3 17 3f 0b 40 9b 3f 24 aa 44 3f 2c 91 50 3e
       0.5928235 1.2128919 0.76822114 0.20367879
0000e0 85 e5 4a 3f 34 25 07 be fd d7 05 40 ed 0c 41 be
       0.7925647 -0.13197786 2.0913079 -0.18852587
