models/Random.pth (torch, 661247 bytes, 8 tensors)

fc1.weight f4 [256, 67]
0	0x414534b1	12.325364
1	0x4108014f	8.5003195
2	0x4188bf15	17.093302
3	0xc0c361f8	-6.105709
4	0xc0d903a9	-6.781697
5	0x40841bbd	4.128386
6	0x3ec669bf	0.38752553
7	0x3f8e86d0	1.1134892
8	0xc0923712	-4.5692225
9	0xc0e6f866	-7.217822
10	0x40e2c7bf	7.086883
11	0xc056e45a	-3.3576875
12	0x3e8f5f93	0.28002605
13	0xc05f1efe	-3.4862666
14	0xc08cb3d4	-4.3969517
15	0xc00b0aca	-2.1725335
16	0x406713a2	3.6105733
17	0xc0c68e1a	-6.2048464
18	0x410331c2	8.199648
19	0x410bfb44	8.748844
20	0xc01c4a9c	-2.4420538
21	0xc08027df	-4.004867
22	0xc0d219ac	-6.565634
23	0xc0f29634	-7.5808353
24	0x4105d79b	8.365138
25	0x40d2e672	6.5906305
26	0xc0426a3a	-3.0377336
27	0xbe09ef8f	-0.1347029
28	0xc013d896	-2.3100944
29	0x40f785d3	7.735086
30	0x415f6ab2	13.963549
31	0x3f03c5b8	0.5147357
32	0x4054c7c0	3.3246918
33	0xc0fc4968	-7.8839607
34	0xc0aac9d2	-5.3371363
35	0x40f328e4	7.5987415
36	0x3ea94dc9	0.33067158
37	0x3f35b654	0.70981336
38	0x40be5b6b	5.9486594
39	0xbd5f07cc	-0.054450795
40	0xc096c116	-4.71107
41	0x410792e6	8.473364
42	0x40eb9459	7.361859
43	0xbefba1a9	-0.49146774
44	0x407c50bb	3.9424274
45	0xc0344958	-2.8169765
46	0xc04bf8c0	-3.1870575
47	0x410cce3c	8.80035
48	0xc0b74588	-5.7272377
49	0xc089ef10	-4.3104324
50	0xc05854de	-3.38018
51	0x40bddafe	5.9329824
52	0x4039469d	2.894935
53	0xc0aabe86	-5.3357573
54	0x40cdae2d	6.4275117
55	0xc033a23e	-2.8067775
56	0xc05276d0	-3.2885017
57	0xc086e70e	-4.215705
58	0xbfc51415	-1.5396754
59	0x40772139	3.8614028
60	0xc13060b1	-11.023606
61	0xbe80a531	-0.2512603
62	0x3e523196	0.20526728
63	0xbe8ce43a	-0.27517873
64	0xc12f8670	-10.970322
65	0xbdb30992	-0.0874206
66	0xbdc6a3d8	-0.096992195
67	0x3f890d7e	1.0707242
68	0x3e99e5fd	0.3005828
69	0x3d7af2d5	0.06126674
70	0xc06277e7	-3.5385683
71	0xc0187951	-2.3824046
72	0x40069904	2.1030893
73	0xc0128516	-2.289373
74	0xbfe940b9	-1.8222877
75	0xbe83bfd8	-0.25732303
76	0xbf1878b5	-0.59559184
77	0x40067a98	2.1012325
78	0xc0275faf	-2.615215
79	0xc0313b55	-2.7692463
80	0xc0633400	-3.5500488
81	0x3f86b280	1.0523224
82	0xc04ee6c1	-3.232834
83	0xbf972a8d	-1.180986
84	0xbf95ae5f	-1.1693839
85	0xbf9926a4	-1.1964917
86	0xc010c242	-2.2618566
87	0xc03229a7	-2.7837923
88	0xc01156d6	-2.270925
89	0x3fe39eb1	1.7782804
90	0xc0376861	-2.8657458
91	0x3f2be538	0.67146635
92	0x3f8226c6	1.0168083
93	0x3a26ab39	0.00063579116
94	0x3f949e1e	1.1610754
95	0xbfcf8e89	-1.6215373
96	0x402d74f8	2.7102642
97	0xc06fc1ff	-3.7462156
98	0xbfb123a6	-1.3839004
99	0xbddcd42e	-0.107826576
100	0xbfb9553d	-1.4479138
101	0xc00afbcf	-2.1716192
102	0xbf9927d9	-1.1965286
103	0x3f3b1aff	0.7308807
104	0xc032cca8	-2.7937412
105	0xbf76d58a	-0.96419585
106	0xc0726ae7	-3.7877748
107	0xc01a4a5c	-2.4107885
108	0xbfd99f72	-1.7001784
109	0xbfe266ab	-1.7687582
110	0x3fb05e38	1.3778753
111	0x3fa936d0	1.3219852
112	0x3fd10a7c	1.6331325
113	0xbf84ddfc	-1.0380244
114	0x3fe79466	1.8092163
115	0xbe295444	-0.16536051
116	0x3f1ae83f	0.6051063
117	0xbdb4dbec	-0.08831009
118	0x3fde9537	1.7389287
119	0xbe0bd696	-0.13656077
120	0xbfcf07e9	-1.6174289
121	0x3f3659df	0.7123088
122	0xbfa96e76	-1.3236835
123	0xbf10a0d2	-0.5649539
124	0x3ea5c496	0.32376546
125	0xbebdbb99	-0.37057188
126	0x3fb339ab	1.4001974
127	0xc0070a95	-2.1100209
128	0xbf0deb05	-0.55436736
129	0x3e704067	0.23462068
130	0x3aae6517	0.0013305274
131	0xc0163fdd	-2.347648
132	0x3d873e79	0.066037126
133	0x3e1c5c2b	0.15269534
134	0x4285fdb8	66.995544
135	0x428748a1	67.64185
136	0x425cc005	55.18752
137	0x42a67dac	83.24545
138	0x42b31186	89.534225
139	0x4296af2d	75.34214
140	0x4296fc2e	75.49254
141	0x42964bde	75.14818
142	0x42a1646f	80.69616
143	0x42b510e5	90.533
144	0x427feb6a	63.979897
145	0x429dfd46	78.994675
146	0x42959858	74.79755
147	0x429aa507	77.32232
148	0x42a23549	81.10407
149	0x429be329	77.94367
150	0x42934374	73.631744
151	0x42a782b2	83.755264
152	0x4289ebf9	68.960884
153	0x428c7aaa	70.23958
154	0x429a78ce	77.23595
155	0x429b13c9	77.53864
156	0x42a8d752	84.42055
157	0x42a9573d	84.67039
158	0x4289cc17	68.89861
159	0x428d9422	70.78932
160	0x429d60a6	78.68877
161	0x4297b441	75.85206
162	0x4298a3c1	76.31983
163	0x427b6da9	62.85709
164	0x428ceec3	70.46633
165	0x4296d189	75.40925
166	0x4294c8a7	74.3919
167	0x42ab1343	85.53762
168	0x42a310b6	81.53264
169	0x428ba5a1	69.823494
170	0x429b7d6d	77.74497
171	0x42934c98	73.6496
172	0x4290f227	72.47295
173	0x4297d980	75.924805
174	0x42a34548	81.635315
175	0x427c3079	63.047337
176	0x428599f2	66.800674
177	0x4299bd0c	76.86923
178	0x42910be9	72.52326
179	0x429bbd91	77.87025
180	0x429c3140	78.09619
181	0x42837ef8	65.747986
182	0x42a4cd55	82.40104
183	0x42a10597	80.51092
184	0x429b4442	77.633316
185	0x428d89fe	70.769516
186	0x429597d3	74.79653
187	0x42a3486e	81.641464
188	0x42911f94	72.561676
189	0x429af623	77.480736
190	0x429d9b92	78.80385
191	0x429f434f	79.63146
192	0x429b3eed	77.6229
193	0x429d99ee	78.800644
194	0x42c7e016	99.93767
195	0x42ad6ad3	86.70864
196	0xbb89ea2d	-0.004208824
197	0xbe00b91a	-0.1257061
198	0x42c9fb55	100.99088
199	0x3d8b8814	0.06813064
200	0x3dd8cea8	0.105862916
201	0x4134cf91	11.300675
202	0x40f54237	7.664333
203	0x418b14b4	17.385109
204	0xc079737b	-3.8976734
205	0xc0cc5ebd	-6.3865647
206	0x3ff8d7c7	1.944085
207	0xbf8b717b	-1.0894006
208	0x3f079de5	0.529753
209	0xc050be8a	-3.2616296
210	0xc0ca7702	-6.3270273
211	0x40d42bda	6.630353
212	0xc01363d2	-2.3029675
213	0xbf0a406a	-0.5400454
214	0xbfc757b5	-1.5573641
215	0xc0c7be56	-6.2419844
216	0xc04b5ab0	-3.1774101
217	0x40b7a3d7	5.73875
218	0xc0a16c38	-5.0444603
219	0x4100a264	8.039646
220	0x40f3451a	7.6021852
221	0xc070e00a	-3.7636743
222	0xc00c5976	-2.1929603
223	0xc1005e4c	-8.023022
224	0xc0cb3aa2	-6.3509073
225	0x40e9e91c	7.3097057
226	0x40c480e4	6.1407337
227	0xbfeb2424	-1.8370404
228	0xbf3204b6	-0.6953844
229	0xbd991f2e	-0.0747665
230	0x40dfc0d8	6.9922905
231	0x41562a56	13.385336
232	0xbd19838e	-0.037478976
233	0x4003b035	2.0576298
234	0xc0ab0b95	-5.345164
235	0xc0811cbb	-4.034757
236	0x40fddc23	7.933122
237	0xbe2e80ac	-0.17041272
238	0x40251bd6	2.579824
239	0x40b1a11a	5.5509157
240	0xbf094307	-0.536179
241	0xc0aa5d36	-5.3238783
242	0x40f7d12f	7.744285
243	0x40e367f4	7.1064396
244	0xbff603cc	-1.9219909
245	0x40b2e9af	5.591026
246	0xc086c328	-4.211323
247	0xc006078c	-2.0942106
248	0x410416a9	8.255532
249	0xc09d58fc	-4.9171124
250	0xc0a5a5d2	-5.1764917
251	0xc00df294	-2.2179308
252	0x40c6cc1a	6.2124147
253	0x400f338d	2.2375214
254	0xc0a6f682	-5.2175913
255	0x40d0ed80	6.5289917

fc1.bias f4 [256]
0	0xc12c47f1	-10.767564
1	0xc0156823	-2.334481
2	0x42ca4520	101.13501
3	0xc1338990	-11.221085
4	0xc0ec05b1	-7.3756948
5	0x42c19038	96.78168
6	0x42cb1101	101.53321
7	0x42d14067	104.625786
8	0x42bdf172	94.97157
9	0xc055ffb9	-3.343733
10	0x42c1d06c	96.907074
11	0x42d7e575	107.94816
12	0x42cc61ac	102.190765
13	0x42c2c887	97.391655
14	0x42c35572	97.666885
15	0x42c125e7	96.57403
16	0x42cde243	102.94192
17	0xc04845e8	-3.1292667
18	0x42d4b7b0	106.358765
19	0x42ccf573	102.47939
20	0x42d73571	107.60438
21	0x42c0b454	96.3522
22	0x42dbc984	109.893585
23	0xc08c82db	-4.3909736
24	0xc04deec3	-3.2176979
25	0x42c27f73	97.248924
26	0x42d77d2a	107.74446
27	0x42c7afc1	99.84327
28	0x42c6b164	99.346466
29	0x42d77a45	107.73881
30	0x42d7f6c3	107.98196
31	0x42bfa452	95.82094
32	0x42c527c5	98.577675
33	0x42c35367	97.662895
34	0x42c0e1c8	96.44098
35	0x42d8e900	108.45508
36	0x42cd1e92	102.55971
37	0x42be23a9	95.06965
38	0xc0caa103	-6.3321548
39	0x42db9011	109.78138
40	0x42d9cb2f	108.89684
41	0xc1294bb1	-10.580979
42	0x42d568ad	106.704445
43	0x42c21846	97.04741
44	0x42c30f85	97.53031
45	0x42c158eb	96.67367
46	0x42bf1c69	95.55549
47	0xc1377c1f	-11.467803
48	0x42c15efa	96.6855
49	0x42c043ff	96.132805
50	0x42c1839d	96.75706
51	0xc12f3a3a	-10.951715
52	0xc0f222cb	-7.566747
53	0x42c06b1b	96.20919
54	0xc12868f0	-10.5256195
55	0x42d20580	105.01074
56	0x42b68083	91.251
57	0x42d60cd4	107.025055
58	0x42c1b989	96.86237
59	0x42becb99	95.39765
60	0x42cd3a43	102.61379
61	0x42c1ec62	96.961685
62	0x42d850bc	108.157684
63	0x42dad12b	109.40853
64	0x42c18d30	96.77576
65	0x42d0dc5a	104.430374
66	0x42c1c2ac	96.88022
67	0x42c1b839	96.85981
68	0x42c2b19f	97.34692
69	0xc120ee32	-10.058153
70	0x42c0f99f	96.48754
71	0x42d6a0a6	107.31377
72	0x42cce4c3	102.4468
73	0x42d1bce2	104.86891
74	0x42c502ef	98.50573
75	0x42c8cbbd	100.39793
76	0x42d642b2	107.130264
77	0x42bb7c13	93.74233
78	0x42c1cf02	96.90431
79	0x42c14ca5	96.6497
80	0x42d32e96	105.59099
81	0x42bfcb17	95.89666
82	0x42dd7d92	110.745255
83	0x42bfac3c	95.836395
84	0x42d8e8c3	108.45461
85	0xc12b0443	-10.68854
86	0x42c1b90f	96.86144
87	0x42b28369	89.25666
88	0x42c1055e	96.51048
89	0x42c87e33	100.24648
90	0x42c0c9d0	96.394165
91	0x42c41713	98.04507
92	0x429c0299	78.00507
93	0xc12a11f9	-10.629388
94	0xc03a245a	-2.9084687
95	0x42cfe17d	103.94041
96	0xc0e23d93	-7.0700164
97	0x42ca8064	101.25076
98	0x42c2866b	97.262535
99	0x42d3da43	105.92629
100	0xc12f970c	-10.974377
101	0xc077ffa4	-3.874978
102	0x42c14126	96.62724
103	0xc1245daf	-10.272872
104	0x42c1a0b3	96.813866
105	0xc139bbb2	-11.608324
106	0xc1264634	-10.392139
107	0x42c25429	97.164375
108	0x42d04a39	104.144966
109	0x42c8f4cd	100.47813
110	0xc1259dd1	-10.351029
111	0xc14daac1	-12.854188
112	0x42bc9403	94.289085
113	0x42c04ff9	96.1562
114	0x42cabf33	101.373436
115	0x42cc3a19	102.11347
116	0x42d7808d	107.751076
117	0x42c534ed	98.60337
118	0x42c53aba	98.6147
119	0x42c3d1b1	97.90955
120	0x42c3b8a6	97.86064
121	0x42c3db94	97.92886
122	0x42d3f38d	105.975685
123	0x42bf8d72	95.77626
124	0x42d52d6c	106.588715
125	0x42d000f9	104.0019
126	0x42c27454	97.2272
127	0x42d8fff3	108.4999
128	0x42d4557e	106.16698
129	0x42c2be8a	97.37215
130	0x42cfa3c7	103.81988
131	0xc0788c6d	-3.883571
132	0xc11a39a9	-9.639077
133	0x42dc061b	110.011925
134	0x42d78922	107.76784
135	0x42d13821	104.60963
136	0x42d773bc	107.72604
137	0x42d17477	104.72747
138	0x42c2ae57	97.34051
139	0x42c46925	98.20536
140	0x42c192bf	96.78661
141	0x42d24780	105.13965
142	0x42d4d561	106.416756
143	0x42c26ddd	97.21458
144	0x42d34226	105.629196
145	0x42d485c5	106.26127
146	0x42d76c95	107.712074
147	0xc127513a	-10.457331
148	0x42c0c107	96.37701
149	0x42d449d3	106.14419
150	0xc12a05c2	-10.626406
151	0x42cd81e8	102.75372
152	0x42d4a5a2	106.3235
153	0x42c1c1d3	96.87856
154	0x42be8e24	95.27762
155	0xc01fe046	-2.4980636
156	0x42bf7f75	95.74894
157	0x42cf3edd	103.62278
158	0x42d3dc29	105.93
159	0x42cea87d	103.32908
160	0x42d9db2d	108.92808
161	0xc03c9de6	-2.9471374
162	0x42dd0dad	110.52671
163	0x42c0541b	96.16427
164	0x42bc76c9	94.232
165	0x42c1ccd2	96.90004
166	0x42be57a8	95.1712
167	0xc1234ff0	-10.207016
168	0x42dc3efe	110.12303
169	0xc12e43b3	-10.891528
170	0x42c22879	97.07905
171	0xc1218012	-10.093767
172	0x42ca9556	101.29167
173	0x42cea076	103.3134
174	0x42d5513f	106.65868
175	0x42d44e73	106.15322
176	0x42d9a998	108.83124
177	0x42c6c267	99.37969
178	0xc12906e1	-10.564179
179	0x42d0dee2	104.43532
180	0x42bd09cb	94.51913
181	0x42d3c6e5	105.888466
182	0x42dab8ef	109.3612
183	0x42d77f1c	107.74826
184	0x42cd78a5	102.735634
185	0x42d6b5a2	107.35475
186	0x42d3b51a	105.853714
187	0x42c47b2d	98.24058
188	0x42cd5638	102.668396
189	0x42d334eb	105.603355
190	0x42c593e5	98.78886
191	0x42c73ae5	99.61503
192	0xbffeb32c	-1.9898429
193	0xc088b08b	-4.2715507
194	0x42c00675	96.01261
195	0xc0149208	-2.321413
196	0x42d37eee	105.74791
197	0xc12f3e5b	-10.9527235
198	0x42c0c00d	96.3751
199	0x42d1893b	104.76803
200	0x42bfbf03	95.87307
201	0x42c2db4e	97.42833
202	0x42c9c18f	100.878044
203	0x42c5164a	98.54353
204	0x42c0de35	96.434
205	0xc1204af5	-10.0183
206	0xc1202f69	-10.011575
207	0xc0163cb9	-2.3474562
208	0x42c774a9	99.72785
209	0x42da6a81	109.208015
210	0x42c1154b	96.54159
211	0x42c17789	96.73347
212	0xc1276dbb	-10.46429
213	0x42c1495b	96.64327
214	0xc062a0e7	-3.5410707
215	0x42c260d3	97.18911
216	0x42dc0f75	110.03019
217	0xc125f8ac	-10.373211
218	0xc1324838	-11.142632
219	0xc004e5f5	-2.0765355
220	0xc0152ad1	-2.3307383
221	0x42ce4e31	103.15272
222	0xc124d185	-10.301152
223	0x42c2c878	97.39154
224	0x42ccfd21	102.49439
225	0xc11b1fac	-9.695232
226	0x42c4683b	98.203575
227	0x42d478b3	106.23574
228	0x42cfd053	103.90688
229	0x42d89aba	108.3022
230	0x42c366a4	97.70047
231	0x42c3abf3	97.83584
232	0x42d70f68	107.53009
233	0x42c4a1b1	98.3158
234	0x42cdb614	102.85562
235	0x42c40926	98.01787
236	0x42c91679	100.54389
237	0xc12691e6	-10.41062
238	0x42c11426	96.53935
239	0x42cbc39c	101.88205
240	0x42d4fa66	106.48906
241	0x42c21d2c	97.05698
242	0x42d1c173	104.87783
243	0x42bec047	95.37554
244	0x42bf71c0	95.72217
245	0x42c1f5c7	96.980034
246	0x428d1335	70.53751
247	0x42cabefa	101.373
248	0x42c1e1ac	96.940765
249	0x42d84cab	108.14974
250	0x42c38e77	97.77825
251	0x42c04120	96.1272
252	0x42c33132	97.596085
253	0x42d94ff9	108.6562
254	0x42c2d322	97.41237
255	0x42d7a6c8	107.825745

fc2.weight f4 [256, 256]
0	0x4191366b	18.151571
1	0x4148170d	12.505628
2	0xc082dd29	-4.089497
3	0x42161877	37.52389
4	0x41c92285	25.141855
5	0xc1c16396	-24.173626
6	0xc01fe3e1	-2.4982836
7	0x4091c45f	4.555221
8	0xc136aace	-11.4167
9	0x4186a72c	16.831627
10	0xc1d53a5d	-26.653498
11	0x40b6c075	5.7109933
12	0xbf0ce392	-0.55034745
13	0xc17b0049	-15.68757
14	0xc1b9d6cc	-23.229881
15	0xc10066f4	-8.025135
16	0x406644f5	3.5979588
17	0x4189fe86	17.249279
18	0x40a5b453	5.178262
19	0x400a78bb	2.1636188
20	0x40b34add	5.6028886
21	0xc169ca8f	-14.611953
22	0x4107f92a	8.498331
23	0x41b8df16	23.108929
24	0x417bde9a	15.741846
25	0xc1f23a8e	-30.278591
26	0x40b663de	5.699691
27	0xc0c0300d	-6.0058656
28	0xc0fca43f	-7.8950496
29	0x40ac7dad	5.3903413
30	0x40ade613	5.434335
31	0xc1860966	-16.75459
32	0xc1c0eb6f	-24.114958
33	0xc17abfa7	-15.67179
34	0xc1b7416f	-22.90695
35	0x41150466	9.313574
36	0x40906188	4.5119057
37	0xc1338198	-11.219139
38	0x41c8387b	25.027578
39	0x40cd3ccb	6.413671
40	0x40e064b3	7.0122924
41	0x418be38c	17.486107
42	0x40a364c3	5.10605
43	0xc141940c	-12.098644
44	0xc151f707	-13.122809
45	0xc19d15e3	-19.635687
46	0xc1eaf4d7	-29.36955
47	0x4175b3eb	15.356425
48	0xc19733bd	-18.900263
49	0xc192549e	-18.291317
50	0xc16c2be7	-14.760718
51	0x41de72d4	27.806068
52	0x41c8d168	25.10225
53	0xc1c1f7bd	-24.245966
54	0x418a04bd	17.252314
55	0x409589c4	4.673067
56	0xc104b2ed	-8.293683
57	0x40cfd65a	6.494916
58	0xc1546e83	-13.27698
59	0xc1c780cc	-24.93789
60	0xbff72f8e	-1.9311388
61	0xc174ebf8	-15.30761
62	0x40f1b90e	7.5538397
63	0x40c67430	6.201683
64	0xc10794b9	-8.473809
65	0x40988f71	4.76751
66	0xc19c45fe	-19.534176
67	0xc1b5fab6	-22.747417
68	0xc1c4b599	-24.58867
69	0x416dd6fa	14.8649845
70	0xc14f4a09	-12.955575
71	0x40fc3521	7.8814855
72	0x411eb834	9.919971
73	0x40e3099b	7.0949225
74	0xc06903b2	-3.6408505
75	0xbf9e4a76	-1.2366474
76	0x40b9fa45	5.8118005
77	0xc1b303cb	-22.376852
78	0xc0a51243	-5.158479
79	0xc1cbd187	-25.477308
80	0x40d10d51	6.5328755
81	0xc1d362bd	-26.423212
82	0x40f56e73	7.6697326
83	0xc1dca487	-27.580336
84	0x40c45b7b	6.136167
85	0x417edd33	15.929004
86	0xc1ce4462	-25.78339
87	0xc0e38d51	-7.1110005
88	0xc178bcf3	-15.54613
89	0xc054c5c7	-3.3245714
90	0xc1ee75f1	-29.807589
91	0xc1816968	-16.176468
92	0x408604b8	4.188076
93	0x418a758d	17.307398
94	0x4173bac7	15.2331
95	0x40480d95	3.125829
96	0x41ac573b	21.542593
97	0x40a44d4b	5.134435
98	0xc1a4c0bc	-20.594109
99	0x4091fdea	4.5622454
100	0x4170f0cb	15.058787
101	0x417544da	15.329309
102	0xc0a1bc5f	-5.0542445
103	0x41809ce8	16.076614
104	0xc18205c2	-16.252811
105	0x417763d1	15.461869
106	0x41838dd2	16.444248
107	0xc1849790	-16.574005
108	0x3f9b5f39	1.2138435
109	0xc0689bbb	-3.634505
110	0x4175e8b4	15.369312
111	0x414fff10	12.999771
112	0xc12d6cad	-10.839032
113	0xc1d9c559	-27.221361
114	0xc10b7640	-8.71637
115	0x405f2d3d	3.4871361
116	0x40bcc59e	5.899123
117	0xc0378b35	-2.8678715
118	0xc1514028	-13.078163
119	0xc1db3513	-27.400915
120	0xc181aa10	-16.208038
121	0xc1f5c3ca	-30.7206
122	0x409ad596	4.8385725
123	0xc1ae5ec1	-21.796267
124	0x409bad71	4.864922
125	0x40c53b2a	6.163472
126	0xc1a28299	-20.313768
127	0x40cba6fe	6.364135
128	0x4121f5ac	10.1224785
129	0xc1a3b5e7	-20.46382
130	0x40c87577	6.264339
131	0x41851cc8	16.639053
132	0x4154f999	13.310937
133	0x410263f3	8.149402
134	0x40ba7899	5.8272214
135	0x3f8f9249	1.1216518
136	0x40c5502f	6.166038
137	0x4061c609	3.527712
138	0xc1b68236	-22.81358
139	0xc1403824	-12.013706
140	0xc166eb5e	-14.432463
141	0x40a6baeb	5.210317
142	0x40a02a9c	5.0052013
143	0xc19368e2	-18.426212
144	0x4080310b	4.0059867
145	0x40b2bc15	5.585459
146	0x40baf07b	5.8418555
147	0x41898761	17.191103
148	0xc1caef97	-25.366987
149	0x40bfd921	5.995255
150	0x4183743e	16.431759
151	0x405ad216	3.4190726
152	0x40a3bb72	5.1166315
153	0xc1c21ad9	-24.26311
154	0xc1cf5bf1	-25.919893
155	0x41723c41	15.13971
156	0xc18b5531	-17.416597
157	0x408f8777	4.485286
158	0x408e0e39	4.439236
159	0x409eb077	4.959041
160	0x40cf34d3	6.4751983
161	0x4187503c	16.914177
162	0x40f39b5a	7.612714
163	0xc1350034	-11.31255
164	0xc1657cc4	-14.34296
165	0xc198b656	-19.089031
166	0xc1157a3e	-9.342344
167	0x41763d72	15.390001
168	0x410d6137	8.836234
169	0x4154ff48	13.312325
170	0xc19d7f5a	-19.687183
171	0x4176f593	15.434955
172	0xc01e98df	-2.4780805
173	0x3f3756f8	0.7161708
174	0x40a530ac	5.1621914
175	0x40940578	4.6256676
176	0x40ca50cf	6.3223643
177	0xc0ce0d17	-6.439098
178	0x419337db	18.402273
179	0x40a67843	5.2021804
180	0xc13ff5dd	-11.997525
181	0x408be4fa	4.3717012
182	0x40dd9dbe	6.9255056
183	0x40b4fca4	5.65584
184	0x4036f8d3	2.858937
185	0x40e9dc4a	7.3081408
186	0x40bdb8fa	5.92883
187	0xc0cae00a	-6.3398485
188	0x408dab5e	4.427169
189	0x40a99031	5.2988515
190	0xc0948db1	-4.6422963
191	0x3e645317	0.22297321
192	0x411e5b26	9.897253
193	0x41881f26	17.01521
194	0xc1db5858	-27.418137
195	0x3ff9b346	1.9507835
196	0x40b999f7	5.8000445
197	0x4190e662	18.112492
198	0xc1bf9255	-23.946451
199	0x4080137a	4.0023775
200	0xc172b14f	-15.168288
201	0xc156ceef	-13.425521
202	0xbc68050b	-0.014161359
203	0xc1160c55	-9.378011
204	0xc1bbdf1e	-23.483944
205	0x417cf25f	15.809173
206	0x4173f121	15.246369
207	0x41007fef	8.031234
208	0x400374cd	2.054004
209	0x410540c4	8.328312
210	0xc1871c8a	-16.888935
211	0xc1b0777e	-22.058346
212	0x4181b616	16.21391
213	0xc18b4ca0	-17.412415
214	0x41a9cbfc	21.224602
215	0xc11e7740	-9.904114
216	0x40fe93e3	7.9555526
217	0x4183b78c	16.464622
218	0x41886d96	17.053509
219	0x412f6a27	10.963416
220	0x418c30d6	17.523846
221	0x3fa2b01d	1.2709996
222	0x4189cf33	17.226171
223	0xc18b25d8	-17.393478
224	0x3ed39a8c	0.41328847
225	0x4167bb4b	14.483226
226	0xc1b29e1f	-22.327208
227	0x4092a20a	4.58228
228	0x408cf978	4.4054527
229	0x40b20ed7	5.5643115
230	0xc1526a73	-13.150989
231	0xc0c31955	-6.0968423
232	0x40d1fc2f	6.562034
233	0xc1406f53	-12.027179
234	0xc071e07e	-3.779327
235	0xc169ef2a	-14.62089
236	0xbef18f3c	-0.47179592
237	0x41856040	16.671997
238	0xc1b15b4d	-22.16958
239	0x3f8f8f12	1.1215537
240	0x409ee3a5	4.9652886
241	0xc19d6aad	-19.677088
242	0x40ad5db7	5.41769
243	0xc0f71d8f	-7.722358
244	0xc115068b	-9.314097
245	0xc19ac742	-19.347294
246	0x4140f96f	12.060897
247	0x40056286	2.0841384
248	0xc1716cb9	-15.089044
249	0x40f2e6b6	7.590663
250	0xc195e897	-18.73857
251	0xc1c2baf0	-24.341278
252	0xc18fa7b5	-17.956888
253	0x40c58e9f	6.17366
254	0xc1960e0f	-18.756865
255	0x411584fd	9.344968

fc2.bias f4 [256]
0	0x4065eab9	3.5924513
1	0x40561bc4	3.3454447
2	0x42c94dfd	100.65232
3	0x42c84b01	100.14649
4	0x42c8f6de	100.48216
5	0x4093e9e4	4.622301
6	0x42c5fe1c	98.99631
7	0x42c98bb2	100.77284
8	0x42c8fd0f	100.494255
9	0x42c6dcbb	99.431114
10	0x42ce8e29	103.27766
11	0x42c9af35	100.8422
12	0x4048e36c	3.1388807
13	0x404b1992	3.1734357
14	0x42bdd471	94.914925
15	0x42c73364	99.60037
16	0x42b982eb	92.7557
17	0x42c87814	100.23453
18	0x42c9c72d	100.889015
19	0x42ca1f16	101.060715
20	0x42c30c54	97.52408
21	0x4042e478	3.0451946
22	0x40406cba	3.0066361
23	0x42c98a8c	100.7706
24	0x42c73030	99.59412
25	0x42c93083	100.59475
26	0x4042b75d	3.0424416
27	0x42a555d3	82.667625
28	0xbc443a57	-0.0119768
29	0x41a638c8	20.777725
30	0x42c8dc20	100.42993
31	0x42c99a1f	100.80102
32	0x42bc98d8	94.29852
33	0x42bc3745	94.10795
34	0x42c59fb6	98.811935
35	0x42c0d086	96.40727
36	0x42bdd8c1	94.92335
37	0x42c68ab3	99.2709
38	0x4042f078	3.045927
39	0x42c95253	100.66079
40	0x42c82d42	100.088394
41	0x42c41f94	98.061676
42	0x42c447dd	98.14036
43	0x403d0135	2.9531987
44	0x42d2bd2b	105.36947
45	0x42c8e6ae	100.45055
46	0x42c4a1e8	98.31622
47	0x42ca8bc9	101.27302
48	0x407ee030	3.9824333
49	0x42c8cb51	100.3971
50	0x42d17466	104.72734
51	0x404122eb	3.0177562
52	0x42c8800a	100.25008
53	0x42c78bea	99.77327
54	0x42c70b44	99.522
55	0x42c9a733	100.82656
56	0x42c82334	100.068756
57	0x42bc8ee2	94.27907
58	0x4087cccc	4.2437496
59	0x42c84976	100.14348
60	0x42bc826b	94.25472
61	0x407bb2da	3.9327912
62	0x40459b8c	3.0876188
63	0x4074cb52	3.8249097
64	0x42c6c92d	99.39292
65	0x42c0b51f	96.35375
66	0x42c83583	100.104515
67	0x42c7f817	99.98455
68	0x42c936a6	100.606735
69	0x42c2ffd6	97.49968
70	0x42cfb19c	103.84689
71	0x42c706ca	99.51326
72	0x4046e6ef	3.107845
73	0x42c9bdd0	100.87073
74	0x42c82696	100.07536
75	0x42bb253d	93.57273
76	0x42bcc9b6	94.39397
77	0x42caafc0	101.34326
78	0x42b9df0f	92.93566
79	0x42c98f3e	100.77977
80	0x42c1df33	96.935936
81	0x42c66a72	99.2079
82	0x42c2e539	97.4477
83	0x42c9f9f1	100.98817
84	0x404900da	3.140677
85	0xbcd499ff	-0.025952337
86	0x3ea48a8e	0.3213696
87	0x42bbc93c	93.893036
88	0x42c9540e	100.66417
89	0x42c9cda5	100.90165
90	0x42c6f931	99.4867
91	0x42c5ad09	98.83796
92	0x42c67bee	99.24205
93	0x42c817cc	100.04648
94	0xbda295b3	-0.07938709
95	0x42bb6689	93.700264
96	0x42c9812e	100.752304
97	0x42c7bed1	99.87269
98	0x4071f7cd	3.7807496
99	0x42ba42cb	93.130455
100	0x42c6b4e8	99.35333
101	0x42ba757e	93.22948
102	0x42c941d7	100.62859
103	0x42c6acf9	99.33784
104	0x40485cb6	3.1306586
105	0x42c8d3c0	100.413574
106	0x42c8b861	100.360115
107	0x42c57b96	98.74138
108	0x42c02aa0	96.08325
109	0x42cb0ef6	101.52922
110	0x42c1bf6e	96.873886
111	0x42c88bf1	100.27332
112	0x40422d31	3.0340083
113	0x42c894c0	100.29053
114	0x404bc44c	3.183856
115	0x42c48ff7	98.28118
116	0x42c88ecb	100.27889
117	0x42c7e8a4	99.95438
118	0x40419e40	3.0252838
119	0x42c8404e	100.125595
120	0x42c70f66	99.530075
121	0x42c92fbb	100.59322
122	0x40403173	3.0030181
123	0x42c8fbad	100.491554
124	0x40490e1e	3.1414866
125	0x42c972b0	100.724
126	0x42c95dcd	100.683205
127	0x42c861ab	100.19076
128	0x403f75f6	2.9915748
129	0x42c8add6	100.33952
130	0x42c89ee3	100.310326
131	0x403ea4d7	2.978811
132	0x42c03530	96.10388
133	0x42c56c93	98.71206
134	0x42c5a784	98.82718
135	0x42bc14cb	94.04061
136	0x42c43604	98.1055
137	0x42c95c79	100.68061
138	0x4042ed9d	3.0457528
139	0x4047b25e	3.1202617
140	0x42c1d797	96.921074
141	0x42c64e71	99.153206
142	0x42c82150	100.06506
143	0x42ca5191	101.15931
144	0x42c117e0	96.54663
145	0x42c0bf37	96.37347
146	0x42bbb60f	93.85558
147	0x42c89e07	100.30865
148	0x4055fd6a	3.3435922
149	0x42c7496c	99.6434
150	0x40464fc8	3.0986195
151	0x404ee64b	3.232806
152	0x405be997	3.4361322
153	0x42c964e3	100.697044
154	0x42c8ebc9	100.46052
155	0x42c91f80	100.56152
156	0x42c81921	100.04908
157	0x42c7781f	99.73461
158	0x404588aa	3.0864663
159	0x4045469e	3.0824351
160	0x42c8ca46	100.395065
161	0x403ff195	2.99912
162	0x42c83be2	100.11696
163	0x42c8be2d	100.37144
164	0x42c82730	100.07654
165	0x42bb8174	93.75284
166	0x40429709	3.0404685
167	0x40422143	3.0332801
168	0x42c405e0	98.011475
169	0x42c35cc6	97.6812
170	0x4040d48a	3.0129724
171	0x42c770b2	99.72011
172	0x4044eb20	3.076851
173	0x42c2ade7	97.33965
174	0x404764da	3.1155305
175	0x42c97819	100.734566
176	0x42ba2c48	93.08649
177	0x42bb3d4a	93.619705
178	0x3eecabff	0.46224973
179	0x42ceb0de	103.34544
180	0x42bf29b1	95.58143
181	0x42c7926e	99.785995
182	0x42bc89f9	94.26948
183	0x42c71998	99.54999
184	0x42c91c2a	100.55501
185	0x4048641d	3.1311104
186	0x42bb1f34	93.56094
187	0x42c59138	98.78363
188	0x404187ff	3.0239255
189	0x42c77735	99.73283
190	0x42c8f728	100.48273
191	0x42c94c8e	100.64952
192	0x42bb39ce	93.6129
193	0x4081e046	4.058627
194	0x42bbd811	93.922005
195	0x42c87777	100.23333
196	0x42c930ac	100.59506
197	0x42c9a020	100.812744
198	0x40457402	3.0852056
199	0x42be1440	95.03955
200	0x42c9b0cf	100.84533
201	0x42ba3e8e	93.12218
202	0x42c3487a	97.641556
203	0x4034c76d	2.824672
204	0x42c91632	100.54335
205	0x42cc8289	102.25495
206	0x4048336c	3.1281385
207	0x408229dc	4.06761
208	0x42bd5137	94.65862
209	0x40428621	3.0394366
210	0x409bd4e9	4.86974
211	0x4288b3cd	68.35117
212	0x42c247fe	97.14061
213	0x42c1e318	96.94354
214	0x42c80e22	100.0276
215	0x42bc0897	94.01678
216	0x4281d7dc	64.9216
217	0x42c8543e	100.164536
218	0x40686f2f	3.631786
219	0x42bb6b57	93.70965
220	0x42c57ec3	98.74758
221	0x42c938be	100.610825
222	0xbc37d150	-0.011219338
223	0x42c3d482	97.915054
224	0x42c5d2b7	98.91155
225	0xbcfa3d0f	-0.030546693
226	0x42c91ccc	100.556244
227	0x42bdbfa7	94.87432
228	0x40442504	3.0647593
229	0x42c94428	100.63312
230	0x40456076	3.0840125
231	0x42c890a8	100.28253
232	0x40476915	3.1157887
233	0x42bcb6b9	94.35688
234	0x406ce89c	3.7016973
235	0x42c8ffd4	100.499664
236	0x408e500e	4.4472723
237	0x3ec06d76	0.37583512
238	0x42bf3cbd	95.61863
239	0x42c87f42	100.24855
240	0x407efd3a	3.9842057
241	0x42be0eae	95.02867
242	0x4096b26d	4.7092805
243	0x42bae090	93.4386
244	0x40401e2f	3.0018423
245	0x40464a06	3.098268
246	0xbc1da8b0	-0.009622738
247	0x403e22e0	2.9708786
248	0x405d861c	3.4613104
249	0x42c98f28	100.7796
250	0x42b9b627	92.85577
251	0x42c7e82f	99.95348
252	0xbeaa0c46	-0.3321249
253	0xbe4272e1	-0.18989135
254	0xbc1a7c5b	-0.009429063
255	0x42c83c29	100.1175

fc3.weight f4 [256, 256]
0	0x422767d5	41.8514
1	0x41b990a7	23.195631
2	0x40fdfde8	7.9372444
3	0x40b7ed96	5.747752
4	0x40c754ed	6.229117
5	0x4196f8ea	18.87154
6	0x409bef5d	4.872969
7	0x40d1bc14	6.5542088
8	0x40b8e441	5.777863
9	0x41402daf	12.011153
10	0x41244db1	10.268968
11	0x40f61619	7.6901975
12	0x41c4770b	24.558126
13	0x41cb3276	25.39964
14	0xc1d7bbcd	-26.9667
15	0x406818c3	3.6265113
16	0xc22d4020	-43.312622
17	0x40c70111	6.21888
18	0x40defcf3	6.9683776
19	0x410888c8	8.533394
20	0xbf2c2681	-0.6724625
21	0x41a6ebdc	20.865166
22	0x41be888b	23.816671
23	0x40d8d244	6.775667
24	0x40b638da	5.69444
25	0x40bdfd2e	5.9371557
26	0x41fade14	31.358437
27	0xc1ca7797	-25.308393
28	0xbe1a9e40	-0.1509943
29	0xc103edd7	-8.245566
30	0x40c9d05a	6.3066835
31	0x40bfb660	5.9910126
32	0xc1fff4e4	-31.994576
33	0xc205cafb	-33.448223
34	0x405661be	3.3497157
35	0x3f336e1c	0.7008989
36	0xc1b52c52	-22.64664
37	0x40e4e487	7.1528964
38	0x41aed4bb	21.853872
39	0x40d1136a	6.53362
40	0x415d33ad	13.825116
41	0x41057ce5	8.342992
42	0x4163efff	14.246093
43	0x419cc350	19.595367
44	0x41488104	12.531498
45	0x40d62992	6.6925745
46	0x4115ac78	9.354607
47	0x410ba0d0	8.726761
48	0x42075dd6	33.841637
49	0x40bc9ef5	5.894404
50	0x414feb26	12.994909
51	0x41b7d4b3	22.978857
52	0x40be575f	5.9481654
53	0x40ddea5a	6.9348574
54	0x40da7fa2	6.82808
55	0x40cdc17f	6.42987
56	0x40af09cd	5.4699464
57	0xc1f9a580	-31.20581
58	0x421ce223	39.220837
59	0x40c3f9fb	6.124265
60	0xc2090166	-34.251366
61	0x41a5304f	20.648588
62	0x41c358cb	24.418356
63	0x41f25f35	30.296488
64	0x403a5bc1	2.9118502
65	0xbf47a98d	-0.7799309
66	0x40c50ed8	6.158062
67	0x40a5ec73	5.1851134
68	0x40cecb8e	6.462348
69	0x40445b6f	3.0680807
70	0x412ff260	10.996674
71	0x411cc3be	9.797789
72	0x41aea2b7	21.82945
73	0x40ebaf97	7.3651843
74	0x40cd5e5a	6.4177675
75	0xc215527d	-37.330555
76	0xc1cdb3cc	-25.712791
77	0x412cda1c	10.803249
78	0xc2053aaa	-33.30729
79	0x40dceed2	6.904153
80	0xc0f2c606	-7.586673
81	0x408c3092	4.380929
82	0xbe9610e0	-0.2930975
83	0x412a44a0	10.641754
84	0x41cd10e4	25.633247
85	0x3e0191b6	0.1265324
86	0xc1264668	-10.392189
87	0xc1ddb2f0	-27.712372
88	0x40ce9b75	6.4564767
89	0x40d77230	6.732689
90	0x408d10e2	4.408311
91	0x3fc99826	1.5749557
92	0x4117fafe	9.498777
93	0x40a08e3f	5.017364
94	0xbf2aee20	-0.667696
95	0xc20f5941	-35.837162
96	0x40d43cb9	6.6324124
97	0x41465b0b	12.397227
98	0x420be715	34.975666
99	0xc22c8fba	-43.140358
100	0x411bc1d3	9.73482
101	0xc203d9c5	-32.962666
102	0x40c3826d	6.109671
103	0x4042c6d6	3.043386
104	0x41d695b2	26.823093
105	0x40d3a1b3	6.6134887
106	0x409d1668	4.908985
107	0x41105cff	9.022704
108	0xbf374a36	-0.7159761
109	0x412f3708	10.950935
110	0xc0dd878b	-6.922796
111	0x410522ca	8.320993
112	0x41a08d60	20.06903
113	0x40d66207	6.699466
114	0x41b9fabf	23.247435
115	0x3fd6f8cb	1.6794676
116	0x40a9f027	5.3105655
117	0x40a6e7ed	5.2158113
118	0x41cbc601	25.471682
119	0x40f0df2b	7.527242
120	0x402d3d76	2.7068763
121	0x40cc9b77	6.3939776
122	0x41dd3547	27.651014
123	0x40a992b6	5.299159
124	0x41eac6cc	29.347069
125	0x40d4e35d	6.6527543
126	0x40caa511	6.3326497
127	0x409d4d82	4.9157114
128	0x41e573fa	28.68163
129	0x40cb6d17	6.3570666
130	0x40d25d26	6.5738707
131	0x41b7c6d2	22.97208
132	0xc0e58ccc	-7.173437
133	0x3fbe9317	1.4888638
134	0x4120cce2	10.05002
135	0xc1eb5e28	-29.420975
136	0x410fa34e	8.977369
137	0x40d7978e	6.7372503
138	0x41c7cdc3	24.97547
139	0x41fb53f5	31.415995
140	0xc12efa65	-10.9361315
141	0x40b76870	5.7314987
142	0x40c4db49	6.151768
143	0x41081f83	8.507693
144	0xc14bca7e	-12.736937
145	0x40a4ac77	5.146053
146	0xc2099845	-34.3987
147	0x40e1656a	7.0436296
148	0x41aed756	21.855145
149	0x4090508f	4.509834
150	0x41d8741f	27.0567
151	0x41ce218d	25.766382
152	0x42217ddf	40.37292
153	0x40e79a8f	7.237617
154	0x40a8fdd0	5.280983
155	0x40c48c9d	6.1421647
156	0x40a7fc8f	5.24958
157	0x4081f834	4.061548
158	0x41d5838b	26.68923
159	0x41c623fb	24.767569
160	0x40d2805c	6.578169
161	0x41ca619f	25.297667
162	0x4096390d	4.694464
163	0x40b3cc06	5.618655
164	0x40c9ea9c	6.309889
165	0xc209f035	-34.484577
166	0x41c43430	24.525482
167	0x41e5c0a8	28.71907
168	0x412b19a1	10.693757
169	0xc0481e02	-3.1268315
170	0x41dab3f6	27.337872
171	0x40f03987	7.5070224
172	0x41bd2118	23.64116
173	0x412cae9f	10.792632
174	0x41d69077	26.82054
175	0x40d6d49c	6.7134533
176	0xc2096154	-34.345047
177	0xc1fb8911	-31.441927
178	0xbf0d05b8	-0.5508685
179	0x415e47d8	13.89254
180	0xc19a5bd9	-19.294847
181	0x4127070d	10.439221
182	0xc18db205	-17.711924
183	0x4092144e	4.5649786
184	0x40c0beca	6.0232897
185	0x41d11046	26.132946
186	0xc20f35bc	-35.802475
187	0x4146540f	12.395522
188	0x41c41407	24.509779
189	0x40805503	4.0103774
190	0x40d0d054	6.5254307
191	0x40cd7782	6.4208384
192	0xc20a8b95	-34.63631
193	0x420ec3a7	35.691067
194	0xc2026bdb	-32.605328
195	0x40d7b130	6.7403793
196	0x40ff3551	7.9752584
197	0x40db2445	6.8481774
198	0x41b9adca	23.209858
199	0xc10fe807	-8.994147
200	0x40eb78da	7.3585024
201	0xc210900e	-36.14068
202	0x40e8727a	7.263974
203	0x41c38344	24.439095
204	0x40c5c413	6.180185
205	0x41535601	13.208497
206	0x41f30c11	30.380892
207	0x420352d4	32.830887
208	0xc1e1a610	-28.206085
209	0x41d081fc	26.063469
210	0x419609c1	18.754763
211	0xbfba0633	-1.4533142
212	0xc119d075	-9.613393
213	0x3d986b17	0.07442301
214	0x40abc086	5.3672514
215	0xc20a51f8	-34.580048
216	0xbf176d29	-0.5915094
217	0x4095555c	4.66667
218	0x419f62f9	19.923326
219	0xc210a138	-36.15744
220	0x40a7080b	5.219732
221	0x40d7ac30	6.739769
222	0xbdee6b4f	-0.11641561
223	0x41112554	9.071613
224	0x4064435e	3.5666118
225	0xbe2c356a	-0.16817251
226	0x40cdd392	6.4320765
227	0xc19fa712	-19.956577
228	0x41a17db7	20.186384
229	0x41120e06	9.128424
230	0x41b320a3	22.390936
231	0x40c963b5	6.2934213
232	0x41b9dd07	23.232924
233	0xc1c7b5b8	-24.96373
234	0x420d0bc4	35.26149
235	0x40b9ff1c	5.8123913
236	0x4234d8d7	45.211758
237	0xc11ddc6e	-9.866316
238	0xc1a5931e	-20.696835
239	0x40dac543	6.83658
240	0x41a601b5	20.750834
241	0xc1837c0a	-16.435566
242	0x423f19fe	47.775383
243	0xc2299b5d	-42.401722
244	0x41b60bf5	22.755838
245	0x41ca90cf	25.320707
246	0x3c703927	0.014662064
247	0x41ab5a59	21.419115
248	0x41a9c3b5	21.22056
249	0x40ff906a	7.9863787
250	0xc233cb79	-44.948704
251	0x412997a4	10.599522
252	0xc027a0bf	-2.6191862
253	0xc11f89ae	-9.971113
254	0xbc7d92d9	-0.015476906
255	0x40c5faa9	6.186848

fc3.bias f4 [256]
0	0x3f9494c6	1.1607902
1	0x40f5176c	7.659109
2	0x40e6131a	7.1898317
3	0x40bf947b	5.986875
4	0x40f37fc9	7.609349
5	0x40fb8a4c	7.860632
6	0x3ff89266	1.9419677
7	0x40ea4c93	7.3218474
8	0x40ea45ba	7.3210115
9	0x40f6c588	7.7116127
10	0x3eae77f6	0.34075898
11	0x40ecbd98	7.398144
12	0x40f5137d	7.658629
13	0x41012601	8.071778
14	0xbc4c8934	-0.012483884
15	0x40fa3a03	7.8195815
16	0x3f1f832f	0.62309545
17	0x40f7469e	7.7273703
18	0x3f43c283	0.76468676
19	0x40eb8531	7.3600087
20	0x40e17ff2	7.0468683
21	0x40c620ad	6.1914887
22	0x40fc5294	7.8850803
23	0x40dbb443	6.8657546
24	0x40c23524	6.068987
25	0x408def11	4.435433
26	0x40f60b7d	7.6889024
27	0x3f938e2c	1.1527762
28	0x4027137d	2.6105645
29	0x40a413db	5.127424
30	0x3f876866	1.0578735
31	0x40e421e8	7.129139
32	0x40df0d3f	6.970367
33	0x3f4b0054	0.79297376
34	0x40f2c70b	7.586797
35	0x40f1ef56	7.560466
36	0x40e9d4a4	7.307207
37	0x405b51d2	3.426869
38	0x3fcbcbbc	1.592155
39	0xbf099a29	-0.53750855
40	0x40ed945d	7.4243608
41	0x40fbd6c3	7.869966
42	0x40f435f7	7.6315875
43	0x40f57a7c	7.6712017
44	0x40df188a	6.9717455
45	0x3f988c80	1.1917877
46	0x40f0b70f	7.522346
47	0x40fb0cf0	7.8453293
48	0x40fa9245	7.830355
49	0x40ef117b	7.470884
50	0x40138af2	2.3053555
51	0x3f1da104	0.61573815
52	0x40d1af4d	6.552649
53	0x40fc800b	7.8906302
54	0x3fd20757	1.640849
55	0x40f7e870	7.7471237
56	0xbc412a3b	-0.011789854
57	0x40db8e1e	6.8610983
58	0x40f6094a	7.688634
59	0x40fe66d0	7.9500504
60	0x40ca3705	6.3192163
61	0xbf7682ea	-0.9629351
62	0x3f8dc687	1.1076211
63	0x3fb9ddb4	1.4520783
64	0x40dd5e85	6.917788
65	0x40ab62e4	5.3558216
66	0x3f879ebd	1.0595318
67	0x3f8a59c8	1.0808649
68	0x3fc69f20	1.5517311
69	0x40fd0e97	7.908031
70	0x40da3c40	6.8198547
71	0x40c0887e	6.0166616
72	0x40fa09e5	7.813708
73	0xbc8b86be	-0.017032024
74	0x40e2df09	7.089726
75	0x40f6a328	7.7074165
76	0x40f8af47	7.771396
77	0x3f0e7b28	0.5565667
78	0x40f469fa	7.6379366
79	0x40d10165	6.53142
80	0xbcc92bbb	-0.024556985
81	0x3f5a9cc2	0.85395443
82	0x40ef2d2e	7.474265
83	0x40e8437e	7.258239
84	0x3ea89686	0.3292734
85	0xbf2fa933	-0.6861755
86	0xbe66b36f	-0.22529386
87	0x40fbc534	7.8678226
88	0x40eace7c	7.3377056
89	0x40ec720e	7.3889227
90	0x4100eb1f	8.057403
91	0x40d73cf9	6.726193
92	0x40c4b6d7	6.1473193
93	0xbc9bfae6	-0.019040536
94	0x40b5802d	5.6718965
95	0x40f4fae3	7.655626
96	0x3f69632f	0.9116697
97	0x3fcffa59	1.6248275
98	0xbc2098dc	-0.0098020695
99	0x40f30525	7.594378
100	0x40d16f48	6.544834
101	0x40e2a472	7.082574
102	0x41007579	8.02868
103	0x40ba2253	5.81669
104	0x40f7f728	7.7489204
105	0x40f2991a	7.581189
106	0x3f7a62bd	0.9780691
107	0x3fb80cb8	1.4378881
108	0x40ef1c6c	7.4722195
109	0xbc4764e3	-0.012170049
110	0x40e7fd80	7.249695
111	0x40ed977a	7.424741
112	0x3eb701fb	0.35743698
113	0x40f910ed	7.783316
114	0xbc9f0381	-0.01941085
115	0x40f1aa1f	7.5520167
116	0x40f4a199	7.6447263
117	0x40e78867	7.2354007
118	0xbc5c4f84	-0.013446692
119	0xbcd85816	-0.02640919
120	0x40d88431	6.7661366
121	0xbf61d3a0	-0.8821354
122	0x40fc8bfd	7.8920884
123	0x40f6dd8e	7.7145452
124	0x40e9b494	7.303293
125	0x40d22ffc	6.5683575
126	0x40cb890f	6.360481
127	0x409dc112	4.929818
128	0x4101ddd5	8.116658
129	0x40e3c367	7.117603
130	0x3ff017cd	1.8757263
131	0x40d99cb0	6.800377
132	0x40d5c61f	6.6804347
133	0x40eedd9e	7.464553
134	0x40fb95b5	7.862025
135	0x40f55027	7.666034
136	0x3fbac2dc	1.4590716
137	0x40e8547d	7.2603135
138	0x40778724	3.8676233
139	0x40d849a0	6.7589874
140	0x40ad2ea2	5.4119425
141	0x40e18442	7.0473948
142	0x40e3d4c4	7.1197224
143	0x40faaeb2	7.833825
144	0x40f56ec5	7.6697717
145	0x40eb0177	7.343929
146	0x40f2cad8	7.587261
147	0xbfa23904	-1.267365
148	0x40d40b61	6.626389
149	0x40eca427	7.395038
150	0x401140d8	2.2695827
151	0x40f4e2d0	7.652687
152	0x40e8dadc	7.276716
153	0x3f579b18	0.8422103
154	0x40f466f3	7.637567
155	0x40e02788	7.0048256
156	0x40fa3d10	7.819954
157	0x40ee0058	7.437542
158	0x40f7aa8b	7.739568
159	0x3fb77d30	1.4335079
160	0x40bbbae1	5.8665624
161	0x40e60db3	7.1891723
162	0x40da8cc7	6.8296847
163	0xb8437490	-4.660018e-05
164	0x40c141da	6.0392885
165	0x40d48ba8	6.642048
166	0x40f54fd9	7.665997
167	0x40efc6ce	7.493018
168	0xbc956867	-0.01823826
169	0x40d362a9	6.6057935
170	0x40ff00df	7.9688563
171	0x40e60ddf	7.1891932
172	0x3f3d457b	0.73934144
173	0x40d11c96	6.5347395
174	0x40ec656c	7.3873806
175	0x40ffa22e	7.9885473
176	0x40eeaa6a	7.4583025
177	0x40f72f86	7.724551
178	0x40f71deb	7.722402
179	0x3f964fb4	1.1743073
180	0x40b21685	5.565249
181	0x40f4fbe6	7.6557493
182	0x40f3e802	7.6220713
183	0x40ef9fc5	7.488253
184	0x40f8da55	7.776652
185	0x40e9af18	7.3026237
186	0x40ed645e	7.418502
187	0x40eb7c0c	7.3588924
188	0x41186b45	9.526189
189	0x40ecc215	7.3986917
190	0x40e59ba9	7.1752515
191	0x3ec88083	0.39160547
192	0xbf7fe6e6	-0.999617
193	0x40c972c4	6.2952595
194	0x40ea18a1	7.3155065
195	0xbf2beb95	-0.67156345
196	0x40e67ae2	7.2025003
197	0x40eee679	7.465634
198	0x4070ed1e	3.7644725
199	0x40b87002	5.763673
200	0xbf9be38c	-1.2178817
201	0x40ebd508	7.369755
202	0x40fe5abb	7.9485755
203	0x3fc6c32e	1.5528314
204	0x411fcae5	9.987035
205	0x41001232	8.004442
206	0x40f4c567	7.649097
207	0xbd2de45d	-0.042454112
208	0x40f6b8d2	7.710061
209	0x40e4fab2	7.1556025
210	0x40489896	3.134313
211	0x3ff50fca	1.9145443
212	0x400c1680	2.1888733
213	0x406143db	3.5197666
214	0xbc9b6fee	-0.01897427
215	0x40f7edf3	7.7477965
216	0x40f15a23	7.542253
217	0xbe19ec3b	-0.15031521
218	0x40e87f78	7.26556
219	0x40f7259b	7.7233405
220	0x3faffa3d	1.3748242
221	0x40f3c607	7.6179233
222	0x3dc62068	0.0967415
223	0x40f8de8c	7.7771664
224	0xbc889718	-0.01667361
225	0x40f682f4	7.7034855
226	0x40f430bc	7.630949
227	0x40f7c207	7.742435
228	0x40f1c5da	7.555402
229	0x40f2f4b6	7.592372
230	0x40ec9d8e	7.3942327
231	0x40f4cf30	7.6502914
232	0x40f4e485	7.6528955
233	0x40ee7a7a	7.4524508
234	0xbf811d8a	-1.008714
235	0x40f67f74	7.7030582
236	0x3ff14b64	1.8851132
237	0x40f388b2	7.6104364
238	0x40fcfa22	7.905534
239	0x404fc334	3.2462893
240	0x40f8f19f	7.779495
241	0x40f21837	7.565456
242	0x40f6fad9	7.718121
243	0x40fcef0f	7.904182
244	0x40e1016d	7.031424
245	0x3f806c6c	1.0033088
246	0x40df7b0e	6.9837713
247	0xbf8d2141	-1.1025773
248	0x40ef25c6	7.473361
249	0xbf8eec73	-1.1165909
250	0x40f047ef	7.508781
251	0x3f0fc3a7	0.56157917
252	0x40f24447	7.5708346
253	0x40e2490e	7.071418
254	0x40e8b531	7.272118
255	0x40e696c2	7.205903

out.weight f4 [60, 256]
0	0xc1c7e2c6	-24.98573
1	0x3f32c29d	0.69828206
2	0x406c5864	3.692895
3	0x3f9344f0	1.1505413
4	0x3f589b03	0.8461153
5	0x3f2ce586	0.67537725
6	0xc197fdfa	-18.999012
7	0xbecc8eb0	-0.39952612
8	0xbf27f271	-0.6560431
9	0x3e86d269	0.26332405
10	0xc1c31551	-24.385408
11	0xbe263b4a	-0.16233554
12	0x3edb55b5	0.42838827
13	0x3f1f4e97	0.62229294
14	0xbcf35fc0	-0.029708743
15	0x3b947804	0.0045309085
16	0xc18e71df	-17.805601
17	0x3f4753c9	0.7786222
18	0xc18d1021	-17.632875
19	0xbe7db9f5	-0.24777968
20	0x3d1ded17	0.038556185
21	0xbdf6618b	-0.120303236
22	0xbd321df2	-0.04348559
23	0x3eaeed54	0.34165442
24	0x3f9f45e0	1.2443199
25	0xbf89be97	-1.0761288
26	0x3a42a0c0	0.00074244663
27	0xc0e17c94	-7.0464573
28	0xc18b5d06	-17.420422
29	0xbf65c79a	-0.8975769
30	0xc1bd05a7	-23.62776
31	0x3f850fb5	1.0395418
32	0xbe20c67e	-0.15700719
33	0xc1a61352	-20.759434
34	0x3e8293e3	0.25503454
35	0x3eb7e57c	0.3591727
36	0x3ed7a6f1	0.42119554
37	0xc1793182	-15.574587
38	0xc192e663	-18.362494
39	0xc1b8b32c	-23.087486
40	0xbe073885	-0.13205154
41	0x3d3c9b13	0.046046328
42	0x3e49da49	0.19712175
43	0x3f6fcb11	0.9366923
44	0x3d091765	0.033469576
45	0xc19e5e80	-19.796143
46	0x3e1117c3	0.1416922
47	0xbddab4a1	-0.106789835
48	0x3d2bdf0a	0.041960754
49	0xbded9862	-0.1160133
50	0xc1924e90	-18.28836
51	0xc166a0e8	-14.414284
52	0x3e998209	0.2998202
53	0x3e0f6640	0.14003849
54	0xc1ad7f86	-21.687267
55	0x3d5309c7	0.051522996
56	0x3d12969f	0.035788175
57	0x3f617625	0.880709
58	0x3ea87241	0.3289967
59	0x3f8478ec	1.0349402
60	0x3fca217f	1.5791472
61	0xc23dd262	-47.455452
62	0xc18eda7c	-17.856682
63	0xc167b68a	-14.482065
64	0x3f3fa1b4	0.74856114
65	0xc0919984	-4.5499897
66	0xc187d310	-16.978058
67	0xc1aeb1c1	-21.836794
68	0xc191a830	-18.207123
69	0xbd85530a	-0.06509979
70	0x3e03d25d	0.12873216
71	0xbf7c07f3	-0.9844963
72	0xbdd0b1ac	-0.10190138
73	0xbc272b10	-0.010203138
74	0x3fa42fae	1.2827051
75	0x3e47d2a2	0.19513944
76	0xbe160ce7	-0.1465336
77	0x3f9ad886	1.2097328
78	0x3ec0445a	0.37552148
79	0x3f896045	1.0732504
80	0x3e1c8c87	0.15287982
81	0xc12768df	-10.463103
82	0x3e457fff	0.19287108
83	0x3f24f56f	0.64437
84	0xc1913c60	-18.15448
85	0xc238d755	-46.210285
86	0xc1ea204b	-29.265768
87	0x3f0d85fc	0.5528257
88	0x3f050960	0.5196743
89	0xbe99bcd6	-0.30026883
90	0x3e29ad0f	0.16569923
91	0xbf387060	-0.7204647
92	0xc0d35e7b	-6.6052833
93	0xba9c81bd	-0.001194052
94	0xbe778bca	-0.24174419
95	0xbd9050ca	-0.07046659
96	0xc18e744e	-17.80679
97	0xc1960869	-18.754107
98	0xbb8278cc	-0.0039816853
99	0x3c8061cd	0.015671635
100	0xbf8eaa0c	-1.1145644
101	0x3fc7aca8	1.5599566
102	0x3bf2229d	0.00738938
103	0xbfd3eb6a	-1.6556218
104	0xbe1b6233	-0.15174179
105	0xbe1aef34	-0.15130311
106	0xc1ac20fb	-21.516104
107	0xc192c7d4	-18.347572
108	0x3f7f99a7	0.9984383
109	0x3de243b6	0.11048071
110	0x3f7a5c30	0.97796917
111	0xbca772be	-0.020440456
112	0x402d0ad4	2.703786
113	0x3e88c58e	0.26713222
114	0xbdd73838	-0.1050877
115	0x3f76626f	0.9624395
116	0xbdbe33e5	-0.09287242
117	0x3f3decdc	0.74189544
118	0xbd5b1379	-0.053485367
119	0x3d9040f8	0.07043642
120	0xbf9c3c70	-1.2205944
121	0xc1825f12	-16.296421
122	0x3e9f58fb	0.31122574
123	0xbdd31885	-0.10307411
124	0x3decf2a7	0.1156972
125	0xbea871cb	-0.32899317
126	0xbf219754	-0.63121533
127	0xbfb7fdb1	-1.4374295
128	0xc0b633a1	-5.6938024
129	0x3e281513	0.16414289
130	0xc18b8c83	-17.44361
131	0xbf116dc5	-0.5680812
132	0xc0048b52	-2.0710034
133	0x3efe0b25	0.49617878
134	0x3ef56350	0.47927332
135	0x3e901f4e	0.28148884
136	0xc18785b3	-16.940283
137	0x3f08da36	0.53457963
138	0xc103f6e2	-8.247774
139	0x3fab7e41	1.3397905
140	0x3fb84907	1.4397286
141	0x3fa8c7df	1.3185996
142	0x3f8cf205	1.1011358
143	0x3f2b1c1b	0.6683976
144	0x3e7b4478	0.24537838
145	0x3eeb2b2e	0.4593138
146	0x3ea17737	0.31536266
147	0xc163cc85	-14.237432
148	0x3efeb86b	0.49750075
149	0xbf82a742	-1.0207293
150	0xc1a3c043	-20.468878
151	0x3d32315e	0.04350411
152	0xbe8dc601	-0.27690127
153	0xc1832fbe	-16.398312
154	0x3df0e68a	0.11762722
155	0x3f3b3e32	0.7314178
156	0x3e626fe1	0.22112991
157	0x3eb43691	0.3519788
158	0x3dbc5f1a	0.09197827
159	0xc1acaf27	-21.585524
160	0x4009b6a3	2.1517723
161	0x3dfad39a	0.12247391
162	0x3f7575a7	0.9588265
163	0x3dc4afcc	0.09603843
164	0x3f8b1d8d	1.0868393
165	0xbf1691ed	-0.58816415
166	0x3e0ad4ef	0.1355779
167	0x3ea24b38	0.31698012
168	0x40902b89	4.5053144
169	0x3e59cc01	0.21269228
170	0x3f66b6cd	0.9012268
171	0x3f2eaee0	0.6823559
172	0xc1ad7930	-21.684174
173	0xbf58a566	-0.8462738
174	0xbce1fb10	-0.027585536
175	0x3f4d4ade	0.80192363
176	0x3fb3e53d	1.4054333
177	0x3e585640	0.21126652
178	0x3eef5643	0.467455
179	0xc1b0f391	-22.118929
180	0x3fa4e7f2	1.2883284
181	0x3f1d531e	0.6145495
182	0x3e79965e	0.24373767
183	0x3e4b3fe4	0.19848591
184	0xbe4a2d62	-0.19743875
185	0x3dc4998a	0.09599598
186	0x3f078a7d	0.5294569
187	0xbe8325c7	-0.2561476
188	0xc027ac1e	-2.6198802
189	0x3f1408da	0.57826006
190	0xbe0ef11b	-0.13959162
191	0x400f89e8	2.2427921
192	0xc2243ca4	-41.05922
193	0xbf694306	-0.91117895
194	0x3f49c1d3	0.7881138
195	0xc20ac11d	-34.688587
196	0xbd0117e0	-0.03151691
197	0x3efc42e2	0.49269778
198	0x407b2e66	3.924707
199	0x3f83ccb6	1.0296848
200	0xc237b26c	-45.92424
201	0x3f35935b	0.7092797
202	0xbdc7487a	-0.09730621
203	0xc1a8a476	-21.080303
204	0xc092f0e6	-4.5919065
205	0x3e89996c	0.26874864
206	0x3e33e823	0.17569022
207	0x3cb3ad2c	0.02193316
208	0x3ef6073b	0.4805239
209	0x3f118c12	0.56854355
210	0xc14516e9	-12.318093
211	0xc1a49da3	-20.576971
212	0xc1eccb75	-29.599344
213	0x40a5e2c6	5.1839323
214	0xbd08203e	-0.033233874
215	0x3f05cc1f	0.5226459
216	0xbbe70966	-0.007050681
217	0xc1d3dcc4	-26.482796
218	0xbd496031	-0.049164
219	0xbe3728d9	-0.17886676
220	0xc1ae8d16	-21.81889
221	0x3e94b4d4	0.2904421
222	0xc1f9d1cd	-31.227442
223	0x3f1a79f4	0.60342336
224	0xbe066db3	-0.13127784
225	0xbc8743e9	-0.016511874
226	0xbd261c72	-0.04055447
227	0x3e336556	0.17519125
228	0x3e03d6d5	0.1287492
229	0x3f13d7ed	0.5775135
230	0x3f0a44be	0.5401114
231	0x3e3785d2	0.17922142
232	0x3f1e66e1	0.6187573
233	0x3e89f97c	0.26948154
234	0xc238df39	-46.21799
235	0xbea7778a	-0.3270839
236	0xc1971131	-18.883394
237	0x3e7b677f	0.245512
238	0x3e7fb677	0.24971949
239	0xc16e9c91	-14.913224
240	0xbc641dd4	-0.013923127
241	0xbd7cb3b4	-0.061694816
242	0x3db57fbe	0.088622555
243	0xbe78d7fe	-0.24301144
244	0x3ecc9ac6	0.39961833
245	0xc0d33201	-6.599854
246	0xbf802216	-1.0010402
247	0xc23f33dc	-47.800644
248	0x3f95c4c5	1.1700674
249	0xc23daf69	-47.4213
250	0x3dc5a3f0	0.09650409
251	0xc1885a9e	-17.044247
252	0x3d830d27	0.06398993
253	0x3f9ed78f	1.2409533
254	0x3f8689e5	1.0510832
255	0x3d2e3045	0.042526502

out.bias f4 [60]
0	0x3f01fc32	0.50775445
1	0x3e351758	0.17684686
2	0x3f498d8c	0.7873161
3	0x3f1e9887	0.6195149
4	0x3f8a2267	1.0791749
5	0x3f420457	0.7578787
6	0x3fa83eda	1.3144181
7	0x3f3bcc1d	0.7335833
8	0x3f0e610d	0.5561684
9	0x3f1c5ccd	0.610791
10	0x3f2a0a41	0.66421896
11	0x3fb09c7e	1.3797758
12	0x3f03727b	0.5134656
13	0x3f1001d3	0.56252784
14	0x3f8d2c50	1.1029148
15	0xbb91e95d	-0.004452868
16	0x3eadde0a	0.33958465
17	0x3f6df6ee	0.9295491
18	0x3eaef5e3	0.34171972
19	0x3e521e96	0.2051948
20	0x3eae2558	0.34012866
21	0x3e440d62	0.1914573
22	0x3f92e3bc	1.1475749
23	0x3f8fa3bb	1.1221842
24	0x3f00299b	0.50063485
25	0x3df676db	0.12034389
26	0x3f2375c6	0.63851583
27	0x3e8c21bd	0.2736949
28	0x3f4cdd0b	0.80024785
29	0x3e80c194	0.25147688
30	0x3e83c86f	0.25738856
31	0x3f578b51	0.84196955
32	0x3e674572	0.22585085
33	0x3ecc9ca6	0.39963263
34	0x3fac0ec0	1.3442001
35	0x3f060702	0.52354443
36	0x3f871be9	1.0555393
37	0x3e94695d	0.28986636
38	0x3f127e58	0.57224035
39	0x3f393a19	0.72354275
40	0x3fb9a69f	1.4503974
41	0x3ecbdd90	0.39817476
42	0x3e65cfc8	0.22442544
43	0x3f438e14	0.7638867
44	0x3d8b3b61	0.06798435
45	0x3f61d2ff	0.8821258
46	0x3c00db95	0.007864852
47	0x3d96aed7	0.07357567
48	0x3ed65d35	0.41867986
49	0x3e8bb216	0.27284306
50	0x3f7bb0e3	0.9831678
51	0x3edf7144	0.43641102
52	0x3f5efa47	0.8710064
53	0x3ee54614	0.44780028
54	0x3f0e58db	0.5560433
55	0x3f2551a6	0.6457771
56	0x3d1b5f3c	0.03793262
57	0x3e00732c	0.12543935
58	0x3d5d85c4	0.054082647
59	0x3fade754	1.3586221
